7767517
787 1106   
Input                    in0                      0 1 in0
Input                    in1                      0 1 in1
Split                    splitncnn_input1         1 81 in1 mask_3d_btd_splitncnn_0 mask_3d_btd_splitncnn_1 mask_3d_btd_splitncnn_2 mask_3d_btd_splitncnn_3 mask_3d_btd_splitncnn_4 mask_3d_btd_splitncnn_5 mask_3d_btd_splitncnn_6 mask_3d_btd_splitncnn_7 mask_3d_btd_splitncnn_8 mask_3d_btd_splitncnn_9 mask_3d_btd_splitncnn_10 mask_3d_btd_splitncnn_11 mask_3d_btd_splitncnn_12 mask_3d_btd_splitncnn_13 mask_3d_btd_splitncnn_14 mask_3d_btd_splitncnn_15 mask_3d_btd_splitncnn_16 mask_3d_btd_splitncnn_17 mask_3d_btd_splitncnn_18 mask_3d_btd_splitncnn_19 mask_3d_btd_splitncnn_20 mask_3d_btd_splitncnn_21 mask_3d_btd_splitncnn_22 mask_3d_btd_splitncnn_23 mask_3d_btd_splitncnn_24 mask_3d_btd_splitncnn_25 mask_3d_btd_splitncnn_26 mask_3d_btd_splitncnn_27 mask_3d_btd_splitncnn_28 mask_3d_btd_splitncnn_29 mask_3d_btd_splitncnn_30 mask_3d_btd_splitncnn_31 mask_3d_btd_splitncnn_32 mask_3d_btd_splitncnn_33 mask_3d_btd_splitncnn_34 mask_3d_btd_splitncnn_35 mask_3d_btd_splitncnn_36 mask_3d_btd_splitncnn_37 mask_3d_btd_splitncnn_38 mask_3d_btd_splitncnn_39 mask_3d_btd_splitncnn_40 mask_3d_btd_splitncnn_41 mask_3d_btd_splitncnn_42 mask_3d_btd_splitncnn_43 mask_3d_btd_splitncnn_44 mask_3d_btd_splitncnn_45 mask_3d_btd_splitncnn_46 mask_3d_btd_splitncnn_47 mask_3d_btd_splitncnn_48 mask_3d_btd_splitncnn_49 mask_3d_btd_splitncnn_50 mask_3d_btd_splitncnn_51 mask_3d_btd_splitncnn_52 mask_3d_btd_splitncnn_53 mask_3d_btd_splitncnn_54 mask_3d_btd_splitncnn_55 mask_3d_btd_splitncnn_56 mask_3d_btd_splitncnn_57 mask_3d_btd_splitncnn_58 mask_3d_btd_splitncnn_59 mask_3d_btd_splitncnn_60 mask_3d_btd_splitncnn_61 mask_3d_btd_splitncnn_62 mask_3d_btd_splitncnn_63 mask_3d_btd_splitncnn_64 mask_3d_btd_splitncnn_65 mask_3d_btd_splitncnn_66 mask_3d_btd_splitncnn_67 mask_3d_btd_splitncnn_68 mask_3d_btd_splitncnn_69 mask_3d_btd_splitncnn_70 mask_3d_btd_splitncnn_71 mask_3d_btd_splitncnn_72 mask_3d_btd_splitncnn_73 mask_3d_btd_splitncnn_74 mask_3d_btd_splitncnn_75 mask_3d_btd_splitncnn_76 mask_3d_btd_splitncnn_77 mask_3d_btd_splitncnn_78 mask_3d_btd_splitncnn_79 mask_3d_btd_splitncnn_80
BinaryOp                 /encoder/Mul             1 1 in0 /encoder/Mul_output_0 0=2 1=1 2=2.262742e+01
PositionalEncoding       /pos_enc                 1 1 /encoder/Mul_output_0 /encoder/Mul_output_01 0=320
LayerNorm                /encoder/encoders0/encoders0.0/norm1/Add_1 1 1 /encoder/Mul_output_01 /encoder/encoders0/encoders0.0/norm1/Add_1_output_0 0=560 1=1.000000e-12
Split                    splitncnn_0              1 4 /encoder/encoders0/encoders0.0/norm1/Add_1_output_0 /encoder/encoders0/encoders0.0/norm1/Add_1_output_0_splitncnn_0 /encoder/encoders0/encoders0.0/norm1/Add_1_output_0_splitncnn_1 /encoder/encoders0/encoders0.0/norm1/Add_1_output_0_splitncnn_2 /encoder/encoders0/encoders0.0/norm1/Add_1_output_0_splitncnn_3
InnerProduct             /encoder/encoders0/encoders0.0/self_attn/linear_q/MatMul 1 1 /encoder/encoders0/encoders0.0/norm1/Add_1_output_0_splitncnn_3 /encoder/encoders0/encoders0.0/self_attn/linear_q/Add_output_0 0=320 1=1 2=179200
InnerProduct             /encoder/encoders0/encoders0.0/self_attn/linear_k/MatMul 1 1 /encoder/encoders0/encoders0.0/norm1/Add_1_output_0_splitncnn_2 /encoder/encoders0/encoders0.0/self_attn/linear_k/Add_output_0 0=320 1=1 2=179200
InnerProduct             /encoder/encoders0/encoders0.0/self_attn/linear_v/MatMul 1 1 /encoder/encoders0/encoders0.0/norm1/Add_1_output_0_splitncnn_1 /encoder/encoders0/encoders0.0/self_attn/linear_v/Add_output_0 0=320 1=1 2=179200
InnerProduct             /encoder/encoders0/encoders0.0/self_attn/linear_w/MatMul 1 1 /encoder/encoders0/encoders0.0/norm1/Add_1_output_0_splitncnn_0 /encoder/encoders0/encoders0.0/self_attn/linear_w/Add_output_0 0=320 1=1 2=179200
BinaryOp                 /encoder/encoders0/encoders0.0/self_attn/Mul 1 1 /encoder/encoders0/encoders0.0/self_attn/linear_q/Add_output_0 /encoder/encoders0/encoders0.0/self_attn/Mul_output_0 0=2 1=1 2=1.118034e-01
Reshape                  /encoder/encoders0/encoders0.0/self_attn/Reshape 1 1 /encoder/encoders0/encoders0.0/self_attn/Mul_output_0 /encoder/encoders0/encoders0.0/self_attn/Reshape_output_0 0=80 1=4 2=-1
Permute                  /encoder/encoders0/encoders0.0/self_attn/Transpose 1 1 /encoder/encoders0/encoders0.0/self_attn/Reshape_output_0 /encoder/encoders0/encoders0.0/self_attn/Transpose_output_0 0=2
Reshape                  /encoder/encoders0/encoders0.0/self_attn/Reshape_1 1 1 /encoder/encoders0/encoders0.0/self_attn/linear_k/Add_output_0 /encoder/encoders0/encoders0.0/self_attn/Reshape_1_output_0 0=80 1=4 2=-1
Reshape                  /encoder/encoders0/encoders0.0/self_attn/Reshape_2 1 1 /encoder/encoders0/encoders0.0/self_attn/linear_v/Add_output_0 /encoder/encoders0/encoders0.0/self_attn/Reshape_2_output_0 0=80 1=4 2=-1
Permute                  /encoder/encoders0/encoders0.0/self_attn/Transpose_1 1 1 /encoder/encoders0/encoders0.0/self_attn/Reshape_2_output_0 /encoder/encoders0/encoders0.0/self_attn/Transpose_1_output_0 0=2
Permute                  /encoder/encoders0/encoders0.0/self_attn/Transpose_2 1 1 /encoder/encoders0/encoders0.0/self_attn/Reshape_1_output_0 /encoder/encoders0/encoders0.0/self_attn/Transpose_2_output_0 0=3
MatMul                   /encoder/encoders0/encoders0.0/self_attn/MatMul 2 1 /encoder/encoders0/encoders0.0/self_attn/Transpose_output_0 /encoder/encoders0/encoders0.0/self_attn/Transpose_2_output_0 /encoder/encoders0/encoders0.0/self_attn/MatMul_output_0
Softmax                  /encoder/encoders0/encoders0.0/self_attn/Softmax 1 1 /encoder/encoders0/encoders0.0/self_attn/MatMul_output_0 /encoder/encoders0/encoders0.0/self_attn/Softmax_output_0 0=-1 1=1
MatMul                   /encoder/encoders0/encoders0.0/self_attn/MatMul_1 2 1 /encoder/encoders0/encoders0.0/self_attn/Softmax_output_0 /encoder/encoders0/encoders0.0/self_attn/Transpose_1_output_0 /encoder/encoders0/encoders0.0/self_attn/MatMul_1_output_0
Permute                  /encoder/encoders0/encoders0.0/self_attn/Transpose_3 1 1 /encoder/encoders0/encoders0.0/self_attn/MatMul_1_output_0 /encoder/encoders0/encoders0.0/self_attn/Transpose_3_output_0 0=2
Reshape                  /encoder/encoders0/encoders0.0/self_attn/Reshape_3 1 1 /encoder/encoders0/encoders0.0/self_attn/Transpose_3_output_0 /encoder/encoders0/encoders0.0/self_attn/Reshape_3_output_0 0=320 1=-1
InnerProduct             /encoder/encoders0/encoders0.0/self_attn/linear_out/MatMul 1 1 /encoder/encoders0/encoders0.0/self_attn/Reshape_3_output_0 /encoder/encoders0/encoders0.0/self_attn/linear_out/Add_output_0 0=320 1=1 2=102400
BinaryOp                 /encoder/encoders0/encoders0.0/self_attn/Mul_1 2 1 /encoder/encoders0/encoders0.0/self_attn/linear_w/Add_output_0 mask_3d_btd_splitncnn_79 /encoder/encoders0/encoders0.0/self_attn/Mul_1_output_0 0=2
Split                    splitncnn_1              1 2 /encoder/encoders0/encoders0.0/self_attn/Mul_1_output_0 /encoder/encoders0/encoders0.0/self_attn/Mul_1_output_0_splitncnn_0 /encoder/encoders0/encoders0.0/self_attn/Mul_1_output_0_splitncnn_1
Permute                  /encoder/encoders0/encoders0.0/self_attn/Transpose_4 1 1 /encoder/encoders0/encoders0.0/self_attn/Mul_1_output_0_splitncnn_1 /encoder/encoders0/encoders0.0/self_attn/Transpose_4_output_0 0=1
ConvolutionDepthWise1D   /encoder/encoders0/encoders0.0/self_attn/fsmn_block/Conv 1 1 /encoder/encoders0/encoders0.0/self_attn/Transpose_4_output_0 /encoder/encoders0/encoders0.0/self_attn/fsmn_block/Conv_output_0 0=320 1=11 4=5 6=3520 7=320
Permute                  /encoder/encoders0/encoders0.0/self_attn/Transpose_5 1 1 /encoder/encoders0/encoders0.0/self_attn/fsmn_block/Conv_output_0 /encoder/encoders0/encoders0.0/self_attn/Transpose_5_output_0 0=1
BinaryOp                 /encoder/encoders0/encoders0.0/self_attn/Add 2 1 /encoder/encoders0/encoders0.0/self_attn/Transpose_5_output_0 /encoder/encoders0/encoders0.0/self_attn/Mul_1_output_0_splitncnn_0 /encoder/encoders0/encoders0.0/self_attn/Add_output_0
BinaryOp                 /encoder/encoders0/encoders0.0/self_attn/Mul_2 2 1 /encoder/encoders0/encoders0.0/self_attn/Add_output_0 mask_3d_btd_splitncnn_78 /encoder/encoders0/encoders0.0/self_attn/Mul_2_output_0 0=2
BinaryOp                 /encoder/encoders0/encoders0.0/self_attn/Add_1 2 1 /encoder/encoders0/encoders0.0/self_attn/linear_out/Add_output_0 /encoder/encoders0/encoders0.0/self_attn/Mul_2_output_0 /encoder/encoders0/encoders0.0/self_attn/Add_1_output_0
Split                    splitncnn_2              1 2 /encoder/encoders0/encoders0.0/self_attn/Add_1_output_0 /encoder/encoders0/encoders0.0/self_attn/Add_1_output_0_splitncnn_0 /encoder/encoders0/encoders0.0/self_attn/Add_1_output_0_splitncnn_1
LayerNorm                /encoder/encoders0/encoders0.0/norm2/Add_1 1 1 /encoder/encoders0/encoders0.0/self_attn/Add_1_output_0_splitncnn_1 /encoder/encoders0/encoders0.0/norm2/Add_1_output_0 0=320 1=1.000000e-12
InnerProduct             /encoder/encoders0/encoders0.0/feed_forward/w_1/MatMul 1 1 /encoder/encoders0/encoders0.0/norm2/Add_1_output_0 /encoder/encoders0/encoders0.0/feed_forward/activation/Relu_output_0 0=1280 1=1 2=409600 9=1
InnerProduct             /encoder/encoders0/encoders0.0/feed_forward/w_2/MatMul 1 1 /encoder/encoders0/encoders0.0/feed_forward/activation/Relu_output_0 /encoder/encoders0/encoders0.0/feed_forward/w_2/Add_output_0 0=320 1=1 2=409600
BinaryOp                 /encoder/encoders0/encoders0.0/Add 2 1 /encoder/encoders0/encoders0.0/feed_forward/w_2/Add_output_0 /encoder/encoders0/encoders0.0/self_attn/Add_1_output_0_splitncnn_0 /encoder/encoders0/encoders0.0/Add_output_0
Split                    splitncnn_3              1 2 /encoder/encoders0/encoders0.0/Add_output_0 /encoder/encoders0/encoders0.0/Add_output_0_splitncnn_0 /encoder/encoders0/encoders0.0/Add_output_0_splitncnn_1
LayerNorm                /encoder/encoders/encoders.0/norm1/Add_1 1 1 /encoder/encoders0/encoders0.0/Add_output_0_splitncnn_1 /encoder/encoders/encoders.0/norm1/Add_1_output_0 0=320 1=1.000000e-12
Split                    splitncnn_4              1 4 /encoder/encoders/encoders.0/norm1/Add_1_output_0 /encoder/encoders/encoders.0/norm1/Add_1_output_0_splitncnn_0 /encoder/encoders/encoders.0/norm1/Add_1_output_0_splitncnn_1 /encoder/encoders/encoders.0/norm1/Add_1_output_0_splitncnn_2 /encoder/encoders/encoders.0/norm1/Add_1_output_0_splitncnn_3
InnerProduct             /encoder/encoders/encoders.0/self_attn/linear_w/MatMul 1 1 /encoder/encoders/encoders.0/norm1/Add_1_output_0_splitncnn_3 /encoder/encoders/encoders.0/self_attn/linear_w/Add_output_0 0=320 1=1 2=102400
MultiHeadAttention       /encoder/encoders/encoders.0/self_attn/linear_out/Add 3 1 /encoder/encoders/encoders.0/norm1/Add_1_output_0_splitncnn_2 /encoder/encoders/encoders.0/norm1/Add_1_output_0_splitncnn_1 /encoder/encoders/encoders.0/norm1/Add_1_output_0_splitncnn_0 /encoder/encoders/encoders.0/self_attn/linear_out/Add_output_0 0=320 1=4 2=102400 3=320 4=320
BinaryOp                 /encoder/encoders/encoders.0/self_attn/Mul_1 2 1 /encoder/encoders/encoders.0/self_attn/linear_w/Add_output_0 mask_3d_btd_splitncnn_77 /encoder/encoders/encoders.0/self_attn/Mul_1_output_0 0=2
Split                    splitncnn_5              1 2 /encoder/encoders/encoders.0/self_attn/Mul_1_output_0 /encoder/encoders/encoders.0/self_attn/Mul_1_output_0_splitncnn_0 /encoder/encoders/encoders.0/self_attn/Mul_1_output_0_splitncnn_1
Permute                  /encoder/encoders/encoders.0/self_attn/Transpose_4 1 1 /encoder/encoders/encoders.0/self_attn/Mul_1_output_0_splitncnn_1 /encoder/encoders/encoders.0/self_attn/Transpose_4_output_0 0=1
ConvolutionDepthWise1D   /encoder/encoders/encoders.0/self_attn/fsmn_block/Conv 1 1 /encoder/encoders/encoders.0/self_attn/Transpose_4_output_0 /encoder/encoders/encoders.0/self_attn/fsmn_block/Conv_output_0 0=320 1=11 4=5 6=3520 7=320
Permute                  /encoder/encoders/encoders.0/self_attn/Transpose_5 1 1 /encoder/encoders/encoders.0/self_attn/fsmn_block/Conv_output_0 /encoder/encoders/encoders.0/self_attn/Transpose_5_output_0 0=1
BinaryOp                 /encoder/encoders/encoders.0/self_attn/Add 2 1 /encoder/encoders/encoders.0/self_attn/Transpose_5_output_0 /encoder/encoders/encoders.0/self_attn/Mul_1_output_0_splitncnn_0 /encoder/encoders/encoders.0/self_attn/Add_output_0
BinaryOp                 /encoder/encoders/encoders.0/self_attn/Mul_2 2 1 /encoder/encoders/encoders.0/self_attn/Add_output_0 mask_3d_btd_splitncnn_76 /encoder/encoders/encoders.0/self_attn/Mul_2_output_0 0=2
BinaryOp                 /encoder/encoders/encoders.0/self_attn/Add_1 2 1 /encoder/encoders/encoders.0/self_attn/linear_out/Add_output_0 /encoder/encoders/encoders.0/self_attn/Mul_2_output_0 /encoder/encoders/encoders.0/self_attn/Add_1_output_0
BinaryOp                 /encoder/encoders/encoders.0/Add 2 1 /encoder/encoders/encoders.0/self_attn/Add_1_output_0 /encoder/encoders0/encoders0.0/Add_output_0_splitncnn_0 /encoder/encoders/encoders.0/Add_output_0
Split                    splitncnn_6              1 2 /encoder/encoders/encoders.0/Add_output_0 /encoder/encoders/encoders.0/Add_output_0_splitncnn_0 /encoder/encoders/encoders.0/Add_output_0_splitncnn_1
LayerNorm                /encoder/encoders/encoders.0/norm2/Add_1 1 1 /encoder/encoders/encoders.0/Add_output_0_splitncnn_1 /encoder/encoders/encoders.0/norm2/Add_1_output_0 0=320 1=1.000000e-12
InnerProduct             /encoder/encoders/encoders.0/feed_forward/w_1/MatMul 1 1 /encoder/encoders/encoders.0/norm2/Add_1_output_0 /encoder/encoders/encoders.0/feed_forward/activation/Relu_output_0 0=1280 1=1 2=409600 9=1
InnerProduct             /encoder/encoders/encoders.0/feed_forward/w_2/MatMul 1 1 /encoder/encoders/encoders.0/feed_forward/activation/Relu_output_0 /encoder/encoders/encoders.0/feed_forward/w_2/Add_output_0 0=320 1=1 2=409600
BinaryOp                 /encoder/encoders/encoders.0/Add_1 2 1 /encoder/encoders/encoders.0/feed_forward/w_2/Add_output_0 /encoder/encoders/encoders.0/Add_output_0_splitncnn_0 /encoder/encoders/encoders.0/Add_1_output_0
Split                    splitncnn_7              1 2 /encoder/encoders/encoders.0/Add_1_output_0 /encoder/encoders/encoders.0/Add_1_output_0_splitncnn_0 /encoder/encoders/encoders.0/Add_1_output_0_splitncnn_1
LayerNorm                /encoder/encoders/encoders.1/norm1/Add_1 1 1 /encoder/encoders/encoders.0/Add_1_output_0_splitncnn_1 /encoder/encoders/encoders.1/norm1/Add_1_output_0 0=320 1=1.000000e-12
Split                    splitncnn_8              1 4 /encoder/encoders/encoders.1/norm1/Add_1_output_0 /encoder/encoders/encoders.1/norm1/Add_1_output_0_splitncnn_0 /encoder/encoders/encoders.1/norm1/Add_1_output_0_splitncnn_1 /encoder/encoders/encoders.1/norm1/Add_1_output_0_splitncnn_2 /encoder/encoders/encoders.1/norm1/Add_1_output_0_splitncnn_3
InnerProduct             /encoder/encoders/encoders.1/self_attn/linear_w/MatMul 1 1 /encoder/encoders/encoders.1/norm1/Add_1_output_0_splitncnn_3 /encoder/encoders/encoders.1/self_attn/linear_w/Add_output_0 0=320 1=1 2=102400
MultiHeadAttention       /encoder/encoders/encoders.1/self_attn/linear_out/Add 3 1 /encoder/encoders/encoders.1/norm1/Add_1_output_0_splitncnn_2 /encoder/encoders/encoders.1/norm1/Add_1_output_0_splitncnn_1 /encoder/encoders/encoders.1/norm1/Add_1_output_0_splitncnn_0 /encoder/encoders/encoders.1/self_attn/linear_out/Add_output_0 0=320 1=4 2=102400 3=320 4=320
BinaryOp                 /encoder/encoders/encoders.1/self_attn/Mul_1 2 1 /encoder/encoders/encoders.1/self_attn/linear_w/Add_output_0 mask_3d_btd_splitncnn_75 /encoder/encoders/encoders.1/self_attn/Mul_1_output_0 0=2
Split                    splitncnn_9              1 2 /encoder/encoders/encoders.1/self_attn/Mul_1_output_0 /encoder/encoders/encoders.1/self_attn/Mul_1_output_0_splitncnn_0 /encoder/encoders/encoders.1/self_attn/Mul_1_output_0_splitncnn_1
Permute                  /encoder/encoders/encoders.1/self_attn/Transpose_4 1 1 /encoder/encoders/encoders.1/self_attn/Mul_1_output_0_splitncnn_1 /encoder/encoders/encoders.1/self_attn/Transpose_4_output_0 0=1
ConvolutionDepthWise1D   /encoder/encoders/encoders.1/self_attn/fsmn_block/Conv 1 1 /encoder/encoders/encoders.1/self_attn/Transpose_4_output_0 /encoder/encoders/encoders.1/self_attn/fsmn_block/Conv_output_0 0=320 1=11 4=5 6=3520 7=320
Permute                  /encoder/encoders/encoders.1/self_attn/Transpose_5 1 1 /encoder/encoders/encoders.1/self_attn/fsmn_block/Conv_output_0 /encoder/encoders/encoders.1/self_attn/Transpose_5_output_0 0=1
BinaryOp                 /encoder/encoders/encoders.1/self_attn/Add 2 1 /encoder/encoders/encoders.1/self_attn/Transpose_5_output_0 /encoder/encoders/encoders.1/self_attn/Mul_1_output_0_splitncnn_0 /encoder/encoders/encoders.1/self_attn/Add_output_0
BinaryOp                 /encoder/encoders/encoders.1/self_attn/Mul_2 2 1 /encoder/encoders/encoders.1/self_attn/Add_output_0 mask_3d_btd_splitncnn_74 /encoder/encoders/encoders.1/self_attn/Mul_2_output_0 0=2
BinaryOp                 /encoder/encoders/encoders.1/self_attn/Add_1 2 1 /encoder/encoders/encoders.1/self_attn/linear_out/Add_output_0 /encoder/encoders/encoders.1/self_attn/Mul_2_output_0 /encoder/encoders/encoders.1/self_attn/Add_1_output_0
BinaryOp                 /encoder/encoders/encoders.1/Add 2 1 /encoder/encoders/encoders.1/self_attn/Add_1_output_0 /encoder/encoders/encoders.0/Add_1_output_0_splitncnn_0 /encoder/encoders/encoders.1/Add_output_0
Split                    splitncnn_10             1 2 /encoder/encoders/encoders.1/Add_output_0 /encoder/encoders/encoders.1/Add_output_0_splitncnn_0 /encoder/encoders/encoders.1/Add_output_0_splitncnn_1
LayerNorm                /encoder/encoders/encoders.1/norm2/Add_1 1 1 /encoder/encoders/encoders.1/Add_output_0_splitncnn_1 /encoder/encoders/encoders.1/norm2/Add_1_output_0 0=320 1=1.000000e-12
InnerProduct             /encoder/encoders/encoders.1/feed_forward/w_1/MatMul 1 1 /encoder/encoders/encoders.1/norm2/Add_1_output_0 /encoder/encoders/encoders.1/feed_forward/activation/Relu_output_0 0=1280 1=1 2=409600 9=1
InnerProduct             /encoder/encoders/encoders.1/feed_forward/w_2/MatMul 1 1 /encoder/encoders/encoders.1/feed_forward/activation/Relu_output_0 /encoder/encoders/encoders.1/feed_forward/w_2/Add_output_0 0=320 1=1 2=409600
BinaryOp                 /encoder/encoders/encoders.1/Add_1 2 1 /encoder/encoders/encoders.1/feed_forward/w_2/Add_output_0 /encoder/encoders/encoders.1/Add_output_0_splitncnn_0 /encoder/encoders/encoders.1/Add_1_output_0
Split                    splitncnn_11             1 2 /encoder/encoders/encoders.1/Add_1_output_0 /encoder/encoders/encoders.1/Add_1_output_0_splitncnn_0 /encoder/encoders/encoders.1/Add_1_output_0_splitncnn_1
LayerNorm                /encoder/encoders/encoders.2/norm1/Add_1 1 1 /encoder/encoders/encoders.1/Add_1_output_0_splitncnn_1 /encoder/encoders/encoders.2/norm1/Add_1_output_0 0=320 1=1.000000e-12
Split                    splitncnn_12             1 4 /encoder/encoders/encoders.2/norm1/Add_1_output_0 /encoder/encoders/encoders.2/norm1/Add_1_output_0_splitncnn_0 /encoder/encoders/encoders.2/norm1/Add_1_output_0_splitncnn_1 /encoder/encoders/encoders.2/norm1/Add_1_output_0_splitncnn_2 /encoder/encoders/encoders.2/norm1/Add_1_output_0_splitncnn_3
InnerProduct             /encoder/encoders/encoders.2/self_attn/linear_w/MatMul 1 1 /encoder/encoders/encoders.2/norm1/Add_1_output_0_splitncnn_3 /encoder/encoders/encoders.2/self_attn/linear_w/Add_output_0 0=320 1=1 2=102400
MultiHeadAttention       /encoder/encoders/encoders.2/self_attn/linear_out/Add 3 1 /encoder/encoders/encoders.2/norm1/Add_1_output_0_splitncnn_2 /encoder/encoders/encoders.2/norm1/Add_1_output_0_splitncnn_1 /encoder/encoders/encoders.2/norm1/Add_1_output_0_splitncnn_0 /encoder/encoders/encoders.2/self_attn/linear_out/Add_output_0 0=320 1=4 2=102400 3=320 4=320
BinaryOp                 /encoder/encoders/encoders.2/self_attn/Mul_1 2 1 /encoder/encoders/encoders.2/self_attn/linear_w/Add_output_0 mask_3d_btd_splitncnn_73 /encoder/encoders/encoders.2/self_attn/Mul_1_output_0 0=2
Split                    splitncnn_13             1 2 /encoder/encoders/encoders.2/self_attn/Mul_1_output_0 /encoder/encoders/encoders.2/self_attn/Mul_1_output_0_splitncnn_0 /encoder/encoders/encoders.2/self_attn/Mul_1_output_0_splitncnn_1
Permute                  /encoder/encoders/encoders.2/self_attn/Transpose_4 1 1 /encoder/encoders/encoders.2/self_attn/Mul_1_output_0_splitncnn_1 /encoder/encoders/encoders.2/self_attn/Transpose_4_output_0 0=1
ConvolutionDepthWise1D   /encoder/encoders/encoders.2/self_attn/fsmn_block/Conv 1 1 /encoder/encoders/encoders.2/self_attn/Transpose_4_output_0 /encoder/encoders/encoders.2/self_attn/fsmn_block/Conv_output_0 0=320 1=11 4=5 6=3520 7=320
Permute                  /encoder/encoders/encoders.2/self_attn/Transpose_5 1 1 /encoder/encoders/encoders.2/self_attn/fsmn_block/Conv_output_0 /encoder/encoders/encoders.2/self_attn/Transpose_5_output_0 0=1
BinaryOp                 /encoder/encoders/encoders.2/self_attn/Add 2 1 /encoder/encoders/encoders.2/self_attn/Transpose_5_output_0 /encoder/encoders/encoders.2/self_attn/Mul_1_output_0_splitncnn_0 /encoder/encoders/encoders.2/self_attn/Add_output_0
BinaryOp                 /encoder/encoders/encoders.2/self_attn/Mul_2 2 1 /encoder/encoders/encoders.2/self_attn/Add_output_0 mask_3d_btd_splitncnn_72 /encoder/encoders/encoders.2/self_attn/Mul_2_output_0 0=2
BinaryOp                 /encoder/encoders/encoders.2/self_attn/Add_1 2 1 /encoder/encoders/encoders.2/self_attn/linear_out/Add_output_0 /encoder/encoders/encoders.2/self_attn/Mul_2_output_0 /encoder/encoders/encoders.2/self_attn/Add_1_output_0
BinaryOp                 /encoder/encoders/encoders.2/Add 2 1 /encoder/encoders/encoders.2/self_attn/Add_1_output_0 /encoder/encoders/encoders.1/Add_1_output_0_splitncnn_0 /encoder/encoders/encoders.2/Add_output_0
Split                    splitncnn_14             1 2 /encoder/encoders/encoders.2/Add_output_0 /encoder/encoders/encoders.2/Add_output_0_splitncnn_0 /encoder/encoders/encoders.2/Add_output_0_splitncnn_1
LayerNorm                /encoder/encoders/encoders.2/norm2/Add_1 1 1 /encoder/encoders/encoders.2/Add_output_0_splitncnn_1 /encoder/encoders/encoders.2/norm2/Add_1_output_0 0=320 1=1.000000e-12
InnerProduct             /encoder/encoders/encoders.2/feed_forward/w_1/MatMul 1 1 /encoder/encoders/encoders.2/norm2/Add_1_output_0 /encoder/encoders/encoders.2/feed_forward/activation/Relu_output_0 0=1280 1=1 2=409600 9=1
InnerProduct             /encoder/encoders/encoders.2/feed_forward/w_2/MatMul 1 1 /encoder/encoders/encoders.2/feed_forward/activation/Relu_output_0 /encoder/encoders/encoders.2/feed_forward/w_2/Add_output_0 0=320 1=1 2=409600
BinaryOp                 /encoder/encoders/encoders.2/Add_1 2 1 /encoder/encoders/encoders.2/feed_forward/w_2/Add_output_0 /encoder/encoders/encoders.2/Add_output_0_splitncnn_0 /encoder/encoders/encoders.2/Add_1_output_0
Split                    splitncnn_15             1 2 /encoder/encoders/encoders.2/Add_1_output_0 /encoder/encoders/encoders.2/Add_1_output_0_splitncnn_0 /encoder/encoders/encoders.2/Add_1_output_0_splitncnn_1
LayerNorm                /encoder/encoders/encoders.3/norm1/Add_1 1 1 /encoder/encoders/encoders.2/Add_1_output_0_splitncnn_1 /encoder/encoders/encoders.3/norm1/Add_1_output_0 0=320 1=1.000000e-12
Split                    splitncnn_16             1 4 /encoder/encoders/encoders.3/norm1/Add_1_output_0 /encoder/encoders/encoders.3/norm1/Add_1_output_0_splitncnn_0 /encoder/encoders/encoders.3/norm1/Add_1_output_0_splitncnn_1 /encoder/encoders/encoders.3/norm1/Add_1_output_0_splitncnn_2 /encoder/encoders/encoders.3/norm1/Add_1_output_0_splitncnn_3
InnerProduct             /encoder/encoders/encoders.3/self_attn/linear_w/MatMul 1 1 /encoder/encoders/encoders.3/norm1/Add_1_output_0_splitncnn_3 /encoder/encoders/encoders.3/self_attn/linear_w/Add_output_0 0=320 1=1 2=102400
MultiHeadAttention       /encoder/encoders/encoders.3/self_attn/linear_out/Add 3 1 /encoder/encoders/encoders.3/norm1/Add_1_output_0_splitncnn_2 /encoder/encoders/encoders.3/norm1/Add_1_output_0_splitncnn_1 /encoder/encoders/encoders.3/norm1/Add_1_output_0_splitncnn_0 /encoder/encoders/encoders.3/self_attn/linear_out/Add_output_0 0=320 1=4 2=102400 3=320 4=320
BinaryOp                 /encoder/encoders/encoders.3/self_attn/Mul_1 2 1 /encoder/encoders/encoders.3/self_attn/linear_w/Add_output_0 mask_3d_btd_splitncnn_71 /encoder/encoders/encoders.3/self_attn/Mul_1_output_0 0=2
Split                    splitncnn_17             1 2 /encoder/encoders/encoders.3/self_attn/Mul_1_output_0 /encoder/encoders/encoders.3/self_attn/Mul_1_output_0_splitncnn_0 /encoder/encoders/encoders.3/self_attn/Mul_1_output_0_splitncnn_1
Permute                  /encoder/encoders/encoders.3/self_attn/Transpose_4 1 1 /encoder/encoders/encoders.3/self_attn/Mul_1_output_0_splitncnn_1 /encoder/encoders/encoders.3/self_attn/Transpose_4_output_0 0=1
ConvolutionDepthWise1D   /encoder/encoders/encoders.3/self_attn/fsmn_block/Conv 1 1 /encoder/encoders/encoders.3/self_attn/Transpose_4_output_0 /encoder/encoders/encoders.3/self_attn/fsmn_block/Conv_output_0 0=320 1=11 4=5 6=3520 7=320
Permute                  /encoder/encoders/encoders.3/self_attn/Transpose_5 1 1 /encoder/encoders/encoders.3/self_attn/fsmn_block/Conv_output_0 /encoder/encoders/encoders.3/self_attn/Transpose_5_output_0 0=1
BinaryOp                 /encoder/encoders/encoders.3/self_attn/Add 2 1 /encoder/encoders/encoders.3/self_attn/Transpose_5_output_0 /encoder/encoders/encoders.3/self_attn/Mul_1_output_0_splitncnn_0 /encoder/encoders/encoders.3/self_attn/Add_output_0
BinaryOp                 /encoder/encoders/encoders.3/self_attn/Mul_2 2 1 /encoder/encoders/encoders.3/self_attn/Add_output_0 mask_3d_btd_splitncnn_70 /encoder/encoders/encoders.3/self_attn/Mul_2_output_0 0=2
BinaryOp                 /encoder/encoders/encoders.3/self_attn/Add_1 2 1 /encoder/encoders/encoders.3/self_attn/linear_out/Add_output_0 /encoder/encoders/encoders.3/self_attn/Mul_2_output_0 /encoder/encoders/encoders.3/self_attn/Add_1_output_0
BinaryOp                 /encoder/encoders/encoders.3/Add 2 1 /encoder/encoders/encoders.3/self_attn/Add_1_output_0 /encoder/encoders/encoders.2/Add_1_output_0_splitncnn_0 /encoder/encoders/encoders.3/Add_output_0
Split                    splitncnn_18             1 2 /encoder/encoders/encoders.3/Add_output_0 /encoder/encoders/encoders.3/Add_output_0_splitncnn_0 /encoder/encoders/encoders.3/Add_output_0_splitncnn_1
LayerNorm                /encoder/encoders/encoders.3/norm2/Add_1 1 1 /encoder/encoders/encoders.3/Add_output_0_splitncnn_1 /encoder/encoders/encoders.3/norm2/Add_1_output_0 0=320 1=1.000000e-12
InnerProduct             /encoder/encoders/encoders.3/feed_forward/w_1/MatMul 1 1 /encoder/encoders/encoders.3/norm2/Add_1_output_0 /encoder/encoders/encoders.3/feed_forward/activation/Relu_output_0 0=1280 1=1 2=409600 9=1
InnerProduct             /encoder/encoders/encoders.3/feed_forward/w_2/MatMul 1 1 /encoder/encoders/encoders.3/feed_forward/activation/Relu_output_0 /encoder/encoders/encoders.3/feed_forward/w_2/Add_output_0 0=320 1=1 2=409600
BinaryOp                 /encoder/encoders/encoders.3/Add_1 2 1 /encoder/encoders/encoders.3/feed_forward/w_2/Add_output_0 /encoder/encoders/encoders.3/Add_output_0_splitncnn_0 /encoder/encoders/encoders.3/Add_1_output_0
Split                    splitncnn_19             1 2 /encoder/encoders/encoders.3/Add_1_output_0 /encoder/encoders/encoders.3/Add_1_output_0_splitncnn_0 /encoder/encoders/encoders.3/Add_1_output_0_splitncnn_1
LayerNorm                /encoder/encoders/encoders.4/norm1/Add_1 1 1 /encoder/encoders/encoders.3/Add_1_output_0_splitncnn_1 /encoder/encoders/encoders.4/norm1/Add_1_output_0 0=320 1=1.000000e-12
Split                    splitncnn_20             1 4 /encoder/encoders/encoders.4/norm1/Add_1_output_0 /encoder/encoders/encoders.4/norm1/Add_1_output_0_splitncnn_0 /encoder/encoders/encoders.4/norm1/Add_1_output_0_splitncnn_1 /encoder/encoders/encoders.4/norm1/Add_1_output_0_splitncnn_2 /encoder/encoders/encoders.4/norm1/Add_1_output_0_splitncnn_3
InnerProduct             /encoder/encoders/encoders.4/self_attn/linear_w/MatMul 1 1 /encoder/encoders/encoders.4/norm1/Add_1_output_0_splitncnn_3 /encoder/encoders/encoders.4/self_attn/linear_w/Add_output_0 0=320 1=1 2=102400
MultiHeadAttention       /encoder/encoders/encoders.4/self_attn/linear_out/Add 3 1 /encoder/encoders/encoders.4/norm1/Add_1_output_0_splitncnn_2 /encoder/encoders/encoders.4/norm1/Add_1_output_0_splitncnn_1 /encoder/encoders/encoders.4/norm1/Add_1_output_0_splitncnn_0 /encoder/encoders/encoders.4/self_attn/linear_out/Add_output_0 0=320 1=4 2=102400 3=320 4=320
BinaryOp                 /encoder/encoders/encoders.4/self_attn/Mul_1 2 1 /encoder/encoders/encoders.4/self_attn/linear_w/Add_output_0 mask_3d_btd_splitncnn_69 /encoder/encoders/encoders.4/self_attn/Mul_1_output_0 0=2
Split                    splitncnn_21             1 2 /encoder/encoders/encoders.4/self_attn/Mul_1_output_0 /encoder/encoders/encoders.4/self_attn/Mul_1_output_0_splitncnn_0 /encoder/encoders/encoders.4/self_attn/Mul_1_output_0_splitncnn_1
Permute                  /encoder/encoders/encoders.4/self_attn/Transpose_4 1 1 /encoder/encoders/encoders.4/self_attn/Mul_1_output_0_splitncnn_1 /encoder/encoders/encoders.4/self_attn/Transpose_4_output_0 0=1
ConvolutionDepthWise1D   /encoder/encoders/encoders.4/self_attn/fsmn_block/Conv 1 1 /encoder/encoders/encoders.4/self_attn/Transpose_4_output_0 /encoder/encoders/encoders.4/self_attn/fsmn_block/Conv_output_0 0=320 1=11 4=5 6=3520 7=320
Permute                  /encoder/encoders/encoders.4/self_attn/Transpose_5 1 1 /encoder/encoders/encoders.4/self_attn/fsmn_block/Conv_output_0 /encoder/encoders/encoders.4/self_attn/Transpose_5_output_0 0=1
BinaryOp                 /encoder/encoders/encoders.4/self_attn/Add 2 1 /encoder/encoders/encoders.4/self_attn/Transpose_5_output_0 /encoder/encoders/encoders.4/self_attn/Mul_1_output_0_splitncnn_0 /encoder/encoders/encoders.4/self_attn/Add_output_0
BinaryOp                 /encoder/encoders/encoders.4/self_attn/Mul_2 2 1 /encoder/encoders/encoders.4/self_attn/Add_output_0 mask_3d_btd_splitncnn_68 /encoder/encoders/encoders.4/self_attn/Mul_2_output_0 0=2
BinaryOp                 /encoder/encoders/encoders.4/self_attn/Add_1 2 1 /encoder/encoders/encoders.4/self_attn/linear_out/Add_output_0 /encoder/encoders/encoders.4/self_attn/Mul_2_output_0 /encoder/encoders/encoders.4/self_attn/Add_1_output_0
BinaryOp                 /encoder/encoders/encoders.4/Add 2 1 /encoder/encoders/encoders.4/self_attn/Add_1_output_0 /encoder/encoders/encoders.3/Add_1_output_0_splitncnn_0 /encoder/encoders/encoders.4/Add_output_0
Split                    splitncnn_22             1 2 /encoder/encoders/encoders.4/Add_output_0 /encoder/encoders/encoders.4/Add_output_0_splitncnn_0 /encoder/encoders/encoders.4/Add_output_0_splitncnn_1
LayerNorm                /encoder/encoders/encoders.4/norm2/Add_1 1 1 /encoder/encoders/encoders.4/Add_output_0_splitncnn_1 /encoder/encoders/encoders.4/norm2/Add_1_output_0 0=320 1=1.000000e-12
InnerProduct             /encoder/encoders/encoders.4/feed_forward/w_1/MatMul 1 1 /encoder/encoders/encoders.4/norm2/Add_1_output_0 /encoder/encoders/encoders.4/feed_forward/activation/Relu_output_0 0=1280 1=1 2=409600 9=1
InnerProduct             /encoder/encoders/encoders.4/feed_forward/w_2/MatMul 1 1 /encoder/encoders/encoders.4/feed_forward/activation/Relu_output_0 /encoder/encoders/encoders.4/feed_forward/w_2/Add_output_0 0=320 1=1 2=409600
BinaryOp                 /encoder/encoders/encoders.4/Add_1 2 1 /encoder/encoders/encoders.4/feed_forward/w_2/Add_output_0 /encoder/encoders/encoders.4/Add_output_0_splitncnn_0 /encoder/encoders/encoders.4/Add_1_output_0
Split                    splitncnn_23             1 2 /encoder/encoders/encoders.4/Add_1_output_0 /encoder/encoders/encoders.4/Add_1_output_0_splitncnn_0 /encoder/encoders/encoders.4/Add_1_output_0_splitncnn_1
LayerNorm                /encoder/encoders/encoders.5/norm1/Add_1 1 1 /encoder/encoders/encoders.4/Add_1_output_0_splitncnn_1 /encoder/encoders/encoders.5/norm1/Add_1_output_0 0=320 1=1.000000e-12
Split                    splitncnn_24             1 4 /encoder/encoders/encoders.5/norm1/Add_1_output_0 /encoder/encoders/encoders.5/norm1/Add_1_output_0_splitncnn_0 /encoder/encoders/encoders.5/norm1/Add_1_output_0_splitncnn_1 /encoder/encoders/encoders.5/norm1/Add_1_output_0_splitncnn_2 /encoder/encoders/encoders.5/norm1/Add_1_output_0_splitncnn_3
InnerProduct             /encoder/encoders/encoders.5/self_attn/linear_w/MatMul 1 1 /encoder/encoders/encoders.5/norm1/Add_1_output_0_splitncnn_3 /encoder/encoders/encoders.5/self_attn/linear_w/Add_output_0 0=320 1=1 2=102400
MultiHeadAttention       /encoder/encoders/encoders.5/self_attn/linear_out/Add 3 1 /encoder/encoders/encoders.5/norm1/Add_1_output_0_splitncnn_2 /encoder/encoders/encoders.5/norm1/Add_1_output_0_splitncnn_1 /encoder/encoders/encoders.5/norm1/Add_1_output_0_splitncnn_0 /encoder/encoders/encoders.5/self_attn/linear_out/Add_output_0 0=320 1=4 2=102400 3=320 4=320
BinaryOp                 /encoder/encoders/encoders.5/self_attn/Mul_1 2 1 /encoder/encoders/encoders.5/self_attn/linear_w/Add_output_0 mask_3d_btd_splitncnn_67 /encoder/encoders/encoders.5/self_attn/Mul_1_output_0 0=2
Split                    splitncnn_25             1 2 /encoder/encoders/encoders.5/self_attn/Mul_1_output_0 /encoder/encoders/encoders.5/self_attn/Mul_1_output_0_splitncnn_0 /encoder/encoders/encoders.5/self_attn/Mul_1_output_0_splitncnn_1
Permute                  /encoder/encoders/encoders.5/self_attn/Transpose_4 1 1 /encoder/encoders/encoders.5/self_attn/Mul_1_output_0_splitncnn_1 /encoder/encoders/encoders.5/self_attn/Transpose_4_output_0 0=1
ConvolutionDepthWise1D   /encoder/encoders/encoders.5/self_attn/fsmn_block/Conv 1 1 /encoder/encoders/encoders.5/self_attn/Transpose_4_output_0 /encoder/encoders/encoders.5/self_attn/fsmn_block/Conv_output_0 0=320 1=11 4=5 6=3520 7=320
Permute                  /encoder/encoders/encoders.5/self_attn/Transpose_5 1 1 /encoder/encoders/encoders.5/self_attn/fsmn_block/Conv_output_0 /encoder/encoders/encoders.5/self_attn/Transpose_5_output_0 0=1
BinaryOp                 /encoder/encoders/encoders.5/self_attn/Add 2 1 /encoder/encoders/encoders.5/self_attn/Transpose_5_output_0 /encoder/encoders/encoders.5/self_attn/Mul_1_output_0_splitncnn_0 /encoder/encoders/encoders.5/self_attn/Add_output_0
BinaryOp                 /encoder/encoders/encoders.5/self_attn/Mul_2 2 1 /encoder/encoders/encoders.5/self_attn/Add_output_0 mask_3d_btd_splitncnn_66 /encoder/encoders/encoders.5/self_attn/Mul_2_output_0 0=2
BinaryOp                 /encoder/encoders/encoders.5/self_attn/Add_1 2 1 /encoder/encoders/encoders.5/self_attn/linear_out/Add_output_0 /encoder/encoders/encoders.5/self_attn/Mul_2_output_0 /encoder/encoders/encoders.5/self_attn/Add_1_output_0
BinaryOp                 /encoder/encoders/encoders.5/Add 2 1 /encoder/encoders/encoders.5/self_attn/Add_1_output_0 /encoder/encoders/encoders.4/Add_1_output_0_splitncnn_0 /encoder/encoders/encoders.5/Add_output_0
Split                    splitncnn_26             1 2 /encoder/encoders/encoders.5/Add_output_0 /encoder/encoders/encoders.5/Add_output_0_splitncnn_0 /encoder/encoders/encoders.5/Add_output_0_splitncnn_1
LayerNorm                /encoder/encoders/encoders.5/norm2/Add_1 1 1 /encoder/encoders/encoders.5/Add_output_0_splitncnn_1 /encoder/encoders/encoders.5/norm2/Add_1_output_0 0=320 1=1.000000e-12
InnerProduct             /encoder/encoders/encoders.5/feed_forward/w_1/MatMul 1 1 /encoder/encoders/encoders.5/norm2/Add_1_output_0 /encoder/encoders/encoders.5/feed_forward/activation/Relu_output_0 0=1280 1=1 2=409600 9=1
InnerProduct             /encoder/encoders/encoders.5/feed_forward/w_2/MatMul 1 1 /encoder/encoders/encoders.5/feed_forward/activation/Relu_output_0 /encoder/encoders/encoders.5/feed_forward/w_2/Add_output_0 0=320 1=1 2=409600
BinaryOp                 /encoder/encoders/encoders.5/Add_1 2 1 /encoder/encoders/encoders.5/feed_forward/w_2/Add_output_0 /encoder/encoders/encoders.5/Add_output_0_splitncnn_0 /encoder/encoders/encoders.5/Add_1_output_0
Split                    splitncnn_27             1 2 /encoder/encoders/encoders.5/Add_1_output_0 /encoder/encoders/encoders.5/Add_1_output_0_splitncnn_0 /encoder/encoders/encoders.5/Add_1_output_0_splitncnn_1
LayerNorm                /encoder/encoders/encoders.6/norm1/Add_1 1 1 /encoder/encoders/encoders.5/Add_1_output_0_splitncnn_1 /encoder/encoders/encoders.6/norm1/Add_1_output_0 0=320 1=1.000000e-12
Split                    splitncnn_28             1 4 /encoder/encoders/encoders.6/norm1/Add_1_output_0 /encoder/encoders/encoders.6/norm1/Add_1_output_0_splitncnn_0 /encoder/encoders/encoders.6/norm1/Add_1_output_0_splitncnn_1 /encoder/encoders/encoders.6/norm1/Add_1_output_0_splitncnn_2 /encoder/encoders/encoders.6/norm1/Add_1_output_0_splitncnn_3
InnerProduct             /encoder/encoders/encoders.6/self_attn/linear_w/MatMul 1 1 /encoder/encoders/encoders.6/norm1/Add_1_output_0_splitncnn_3 /encoder/encoders/encoders.6/self_attn/linear_w/Add_output_0 0=320 1=1 2=102400
MultiHeadAttention       /encoder/encoders/encoders.6/self_attn/linear_out/Add 3 1 /encoder/encoders/encoders.6/norm1/Add_1_output_0_splitncnn_2 /encoder/encoders/encoders.6/norm1/Add_1_output_0_splitncnn_1 /encoder/encoders/encoders.6/norm1/Add_1_output_0_splitncnn_0 /encoder/encoders/encoders.6/self_attn/linear_out/Add_output_0 0=320 1=4 2=102400 3=320 4=320
BinaryOp                 /encoder/encoders/encoders.6/self_attn/Mul_1 2 1 /encoder/encoders/encoders.6/self_attn/linear_w/Add_output_0 mask_3d_btd_splitncnn_65 /encoder/encoders/encoders.6/self_attn/Mul_1_output_0 0=2
Split                    splitncnn_29             1 2 /encoder/encoders/encoders.6/self_attn/Mul_1_output_0 /encoder/encoders/encoders.6/self_attn/Mul_1_output_0_splitncnn_0 /encoder/encoders/encoders.6/self_attn/Mul_1_output_0_splitncnn_1
Permute                  /encoder/encoders/encoders.6/self_attn/Transpose_4 1 1 /encoder/encoders/encoders.6/self_attn/Mul_1_output_0_splitncnn_1 /encoder/encoders/encoders.6/self_attn/Transpose_4_output_0 0=1
ConvolutionDepthWise1D   /encoder/encoders/encoders.6/self_attn/fsmn_block/Conv 1 1 /encoder/encoders/encoders.6/self_attn/Transpose_4_output_0 /encoder/encoders/encoders.6/self_attn/fsmn_block/Conv_output_0 0=320 1=11 4=5 6=3520 7=320
Permute                  /encoder/encoders/encoders.6/self_attn/Transpose_5 1 1 /encoder/encoders/encoders.6/self_attn/fsmn_block/Conv_output_0 /encoder/encoders/encoders.6/self_attn/Transpose_5_output_0 0=1
BinaryOp                 /encoder/encoders/encoders.6/self_attn/Add 2 1 /encoder/encoders/encoders.6/self_attn/Transpose_5_output_0 /encoder/encoders/encoders.6/self_attn/Mul_1_output_0_splitncnn_0 /encoder/encoders/encoders.6/self_attn/Add_output_0
BinaryOp                 /encoder/encoders/encoders.6/self_attn/Mul_2 2 1 /encoder/encoders/encoders.6/self_attn/Add_output_0 mask_3d_btd_splitncnn_64 /encoder/encoders/encoders.6/self_attn/Mul_2_output_0 0=2
BinaryOp                 /encoder/encoders/encoders.6/self_attn/Add_1 2 1 /encoder/encoders/encoders.6/self_attn/linear_out/Add_output_0 /encoder/encoders/encoders.6/self_attn/Mul_2_output_0 /encoder/encoders/encoders.6/self_attn/Add_1_output_0
BinaryOp                 /encoder/encoders/encoders.6/Add 2 1 /encoder/encoders/encoders.6/self_attn/Add_1_output_0 /encoder/encoders/encoders.5/Add_1_output_0_splitncnn_0 /encoder/encoders/encoders.6/Add_output_0
Split                    splitncnn_30             1 2 /encoder/encoders/encoders.6/Add_output_0 /encoder/encoders/encoders.6/Add_output_0_splitncnn_0 /encoder/encoders/encoders.6/Add_output_0_splitncnn_1
LayerNorm                /encoder/encoders/encoders.6/norm2/Add_1 1 1 /encoder/encoders/encoders.6/Add_output_0_splitncnn_1 /encoder/encoders/encoders.6/norm2/Add_1_output_0 0=320 1=1.000000e-12
InnerProduct             /encoder/encoders/encoders.6/feed_forward/w_1/MatMul 1 1 /encoder/encoders/encoders.6/norm2/Add_1_output_0 /encoder/encoders/encoders.6/feed_forward/activation/Relu_output_0 0=1280 1=1 2=409600 9=1
InnerProduct             /encoder/encoders/encoders.6/feed_forward/w_2/MatMul 1 1 /encoder/encoders/encoders.6/feed_forward/activation/Relu_output_0 /encoder/encoders/encoders.6/feed_forward/w_2/Add_output_0 0=320 1=1 2=409600
BinaryOp                 /encoder/encoders/encoders.6/Add_1 2 1 /encoder/encoders/encoders.6/feed_forward/w_2/Add_output_0 /encoder/encoders/encoders.6/Add_output_0_splitncnn_0 /encoder/encoders/encoders.6/Add_1_output_0
Split                    splitncnn_31             1 2 /encoder/encoders/encoders.6/Add_1_output_0 /encoder/encoders/encoders.6/Add_1_output_0_splitncnn_0 /encoder/encoders/encoders.6/Add_1_output_0_splitncnn_1
LayerNorm                /encoder/encoders/encoders.7/norm1/Add_1 1 1 /encoder/encoders/encoders.6/Add_1_output_0_splitncnn_1 /encoder/encoders/encoders.7/norm1/Add_1_output_0 0=320 1=1.000000e-12
Split                    splitncnn_32             1 4 /encoder/encoders/encoders.7/norm1/Add_1_output_0 /encoder/encoders/encoders.7/norm1/Add_1_output_0_splitncnn_0 /encoder/encoders/encoders.7/norm1/Add_1_output_0_splitncnn_1 /encoder/encoders/encoders.7/norm1/Add_1_output_0_splitncnn_2 /encoder/encoders/encoders.7/norm1/Add_1_output_0_splitncnn_3
InnerProduct             /encoder/encoders/encoders.7/self_attn/linear_w/MatMul 1 1 /encoder/encoders/encoders.7/norm1/Add_1_output_0_splitncnn_3 /encoder/encoders/encoders.7/self_attn/linear_w/Add_output_0 0=320 1=1 2=102400
MultiHeadAttention       /encoder/encoders/encoders.7/self_attn/linear_out/Add 3 1 /encoder/encoders/encoders.7/norm1/Add_1_output_0_splitncnn_2 /encoder/encoders/encoders.7/norm1/Add_1_output_0_splitncnn_1 /encoder/encoders/encoders.7/norm1/Add_1_output_0_splitncnn_0 /encoder/encoders/encoders.7/self_attn/linear_out/Add_output_0 0=320 1=4 2=102400 3=320 4=320
BinaryOp                 /encoder/encoders/encoders.7/self_attn/Mul_1 2 1 /encoder/encoders/encoders.7/self_attn/linear_w/Add_output_0 mask_3d_btd_splitncnn_63 /encoder/encoders/encoders.7/self_attn/Mul_1_output_0 0=2
Split                    splitncnn_33             1 2 /encoder/encoders/encoders.7/self_attn/Mul_1_output_0 /encoder/encoders/encoders.7/self_attn/Mul_1_output_0_splitncnn_0 /encoder/encoders/encoders.7/self_attn/Mul_1_output_0_splitncnn_1
Permute                  /encoder/encoders/encoders.7/self_attn/Transpose_4 1 1 /encoder/encoders/encoders.7/self_attn/Mul_1_output_0_splitncnn_1 /encoder/encoders/encoders.7/self_attn/Transpose_4_output_0 0=1
ConvolutionDepthWise1D   /encoder/encoders/encoders.7/self_attn/fsmn_block/Conv 1 1 /encoder/encoders/encoders.7/self_attn/Transpose_4_output_0 /encoder/encoders/encoders.7/self_attn/fsmn_block/Conv_output_0 0=320 1=11 4=5 6=3520 7=320
Permute                  /encoder/encoders/encoders.7/self_attn/Transpose_5 1 1 /encoder/encoders/encoders.7/self_attn/fsmn_block/Conv_output_0 /encoder/encoders/encoders.7/self_attn/Transpose_5_output_0 0=1
BinaryOp                 /encoder/encoders/encoders.7/self_attn/Add 2 1 /encoder/encoders/encoders.7/self_attn/Transpose_5_output_0 /encoder/encoders/encoders.7/self_attn/Mul_1_output_0_splitncnn_0 /encoder/encoders/encoders.7/self_attn/Add_output_0
BinaryOp                 /encoder/encoders/encoders.7/self_attn/Mul_2 2 1 /encoder/encoders/encoders.7/self_attn/Add_output_0 mask_3d_btd_splitncnn_62 /encoder/encoders/encoders.7/self_attn/Mul_2_output_0 0=2
BinaryOp                 /encoder/encoders/encoders.7/self_attn/Add_1 2 1 /encoder/encoders/encoders.7/self_attn/linear_out/Add_output_0 /encoder/encoders/encoders.7/self_attn/Mul_2_output_0 /encoder/encoders/encoders.7/self_attn/Add_1_output_0
BinaryOp                 /encoder/encoders/encoders.7/Add 2 1 /encoder/encoders/encoders.7/self_attn/Add_1_output_0 /encoder/encoders/encoders.6/Add_1_output_0_splitncnn_0 /encoder/encoders/encoders.7/Add_output_0
Split                    splitncnn_34             1 2 /encoder/encoders/encoders.7/Add_output_0 /encoder/encoders/encoders.7/Add_output_0_splitncnn_0 /encoder/encoders/encoders.7/Add_output_0_splitncnn_1
LayerNorm                /encoder/encoders/encoders.7/norm2/Add_1 1 1 /encoder/encoders/encoders.7/Add_output_0_splitncnn_1 /encoder/encoders/encoders.7/norm2/Add_1_output_0 0=320 1=1.000000e-12
InnerProduct             /encoder/encoders/encoders.7/feed_forward/w_1/MatMul 1 1 /encoder/encoders/encoders.7/norm2/Add_1_output_0 /encoder/encoders/encoders.7/feed_forward/activation/Relu_output_0 0=1280 1=1 2=409600 9=1
InnerProduct             /encoder/encoders/encoders.7/feed_forward/w_2/MatMul 1 1 /encoder/encoders/encoders.7/feed_forward/activation/Relu_output_0 /encoder/encoders/encoders.7/feed_forward/w_2/Add_output_0 0=320 1=1 2=409600
BinaryOp                 /encoder/encoders/encoders.7/Add_1 2 1 /encoder/encoders/encoders.7/feed_forward/w_2/Add_output_0 /encoder/encoders/encoders.7/Add_output_0_splitncnn_0 /encoder/encoders/encoders.7/Add_1_output_0
Split                    splitncnn_35             1 2 /encoder/encoders/encoders.7/Add_1_output_0 /encoder/encoders/encoders.7/Add_1_output_0_splitncnn_0 /encoder/encoders/encoders.7/Add_1_output_0_splitncnn_1
LayerNorm                /encoder/encoders/encoders.8/norm1/Add_1 1 1 /encoder/encoders/encoders.7/Add_1_output_0_splitncnn_1 /encoder/encoders/encoders.8/norm1/Add_1_output_0 0=320 1=1.000000e-12
Split                    splitncnn_36             1 4 /encoder/encoders/encoders.8/norm1/Add_1_output_0 /encoder/encoders/encoders.8/norm1/Add_1_output_0_splitncnn_0 /encoder/encoders/encoders.8/norm1/Add_1_output_0_splitncnn_1 /encoder/encoders/encoders.8/norm1/Add_1_output_0_splitncnn_2 /encoder/encoders/encoders.8/norm1/Add_1_output_0_splitncnn_3
InnerProduct             /encoder/encoders/encoders.8/self_attn/linear_w/MatMul 1 1 /encoder/encoders/encoders.8/norm1/Add_1_output_0_splitncnn_3 /encoder/encoders/encoders.8/self_attn/linear_w/Add_output_0 0=320 1=1 2=102400
MultiHeadAttention       /encoder/encoders/encoders.8/self_attn/linear_out/Add 3 1 /encoder/encoders/encoders.8/norm1/Add_1_output_0_splitncnn_2 /encoder/encoders/encoders.8/norm1/Add_1_output_0_splitncnn_1 /encoder/encoders/encoders.8/norm1/Add_1_output_0_splitncnn_0 /encoder/encoders/encoders.8/self_attn/linear_out/Add_output_0 0=320 1=4 2=102400 3=320 4=320
BinaryOp                 /encoder/encoders/encoders.8/self_attn/Mul_1 2 1 /encoder/encoders/encoders.8/self_attn/linear_w/Add_output_0 mask_3d_btd_splitncnn_61 /encoder/encoders/encoders.8/self_attn/Mul_1_output_0 0=2
Split                    splitncnn_37             1 2 /encoder/encoders/encoders.8/self_attn/Mul_1_output_0 /encoder/encoders/encoders.8/self_attn/Mul_1_output_0_splitncnn_0 /encoder/encoders/encoders.8/self_attn/Mul_1_output_0_splitncnn_1
Permute                  /encoder/encoders/encoders.8/self_attn/Transpose_4 1 1 /encoder/encoders/encoders.8/self_attn/Mul_1_output_0_splitncnn_1 /encoder/encoders/encoders.8/self_attn/Transpose_4_output_0 0=1
ConvolutionDepthWise1D   /encoder/encoders/encoders.8/self_attn/fsmn_block/Conv 1 1 /encoder/encoders/encoders.8/self_attn/Transpose_4_output_0 /encoder/encoders/encoders.8/self_attn/fsmn_block/Conv_output_0 0=320 1=11 4=5 6=3520 7=320
Permute                  /encoder/encoders/encoders.8/self_attn/Transpose_5 1 1 /encoder/encoders/encoders.8/self_attn/fsmn_block/Conv_output_0 /encoder/encoders/encoders.8/self_attn/Transpose_5_output_0 0=1
BinaryOp                 /encoder/encoders/encoders.8/self_attn/Add 2 1 /encoder/encoders/encoders.8/self_attn/Transpose_5_output_0 /encoder/encoders/encoders.8/self_attn/Mul_1_output_0_splitncnn_0 /encoder/encoders/encoders.8/self_attn/Add_output_0
BinaryOp                 /encoder/encoders/encoders.8/self_attn/Mul_2 2 1 /encoder/encoders/encoders.8/self_attn/Add_output_0 mask_3d_btd_splitncnn_60 /encoder/encoders/encoders.8/self_attn/Mul_2_output_0 0=2
BinaryOp                 /encoder/encoders/encoders.8/self_attn/Add_1 2 1 /encoder/encoders/encoders.8/self_attn/linear_out/Add_output_0 /encoder/encoders/encoders.8/self_attn/Mul_2_output_0 /encoder/encoders/encoders.8/self_attn/Add_1_output_0
BinaryOp                 /encoder/encoders/encoders.8/Add 2 1 /encoder/encoders/encoders.8/self_attn/Add_1_output_0 /encoder/encoders/encoders.7/Add_1_output_0_splitncnn_0 /encoder/encoders/encoders.8/Add_output_0
Split                    splitncnn_38             1 2 /encoder/encoders/encoders.8/Add_output_0 /encoder/encoders/encoders.8/Add_output_0_splitncnn_0 /encoder/encoders/encoders.8/Add_output_0_splitncnn_1
LayerNorm                /encoder/encoders/encoders.8/norm2/Add_1 1 1 /encoder/encoders/encoders.8/Add_output_0_splitncnn_1 /encoder/encoders/encoders.8/norm2/Add_1_output_0 0=320 1=1.000000e-12
InnerProduct             /encoder/encoders/encoders.8/feed_forward/w_1/MatMul 1 1 /encoder/encoders/encoders.8/norm2/Add_1_output_0 /encoder/encoders/encoders.8/feed_forward/activation/Relu_output_0 0=1280 1=1 2=409600 9=1
InnerProduct             /encoder/encoders/encoders.8/feed_forward/w_2/MatMul 1 1 /encoder/encoders/encoders.8/feed_forward/activation/Relu_output_0 /encoder/encoders/encoders.8/feed_forward/w_2/Add_output_0 0=320 1=1 2=409600
BinaryOp                 /encoder/encoders/encoders.8/Add_1 2 1 /encoder/encoders/encoders.8/feed_forward/w_2/Add_output_0 /encoder/encoders/encoders.8/Add_output_0_splitncnn_0 /encoder/encoders/encoders.8/Add_1_output_0
Split                    splitncnn_39             1 2 /encoder/encoders/encoders.8/Add_1_output_0 /encoder/encoders/encoders.8/Add_1_output_0_splitncnn_0 /encoder/encoders/encoders.8/Add_1_output_0_splitncnn_1
LayerNorm                /encoder/encoders/encoders.9/norm1/Add_1 1 1 /encoder/encoders/encoders.8/Add_1_output_0_splitncnn_1 /encoder/encoders/encoders.9/norm1/Add_1_output_0 0=320 1=1.000000e-12
Split                    splitncnn_40             1 4 /encoder/encoders/encoders.9/norm1/Add_1_output_0 /encoder/encoders/encoders.9/norm1/Add_1_output_0_splitncnn_0 /encoder/encoders/encoders.9/norm1/Add_1_output_0_splitncnn_1 /encoder/encoders/encoders.9/norm1/Add_1_output_0_splitncnn_2 /encoder/encoders/encoders.9/norm1/Add_1_output_0_splitncnn_3
InnerProduct             /encoder/encoders/encoders.9/self_attn/linear_w/MatMul 1 1 /encoder/encoders/encoders.9/norm1/Add_1_output_0_splitncnn_3 /encoder/encoders/encoders.9/self_attn/linear_w/Add_output_0 0=320 1=1 2=102400
MultiHeadAttention       /encoder/encoders/encoders.9/self_attn/linear_out/Add 3 1 /encoder/encoders/encoders.9/norm1/Add_1_output_0_splitncnn_2 /encoder/encoders/encoders.9/norm1/Add_1_output_0_splitncnn_1 /encoder/encoders/encoders.9/norm1/Add_1_output_0_splitncnn_0 /encoder/encoders/encoders.9/self_attn/linear_out/Add_output_0 0=320 1=4 2=102400 3=320 4=320
BinaryOp                 /encoder/encoders/encoders.9/self_attn/Mul_1 2 1 /encoder/encoders/encoders.9/self_attn/linear_w/Add_output_0 mask_3d_btd_splitncnn_59 /encoder/encoders/encoders.9/self_attn/Mul_1_output_0 0=2
Split                    splitncnn_41             1 2 /encoder/encoders/encoders.9/self_attn/Mul_1_output_0 /encoder/encoders/encoders.9/self_attn/Mul_1_output_0_splitncnn_0 /encoder/encoders/encoders.9/self_attn/Mul_1_output_0_splitncnn_1
Permute                  /encoder/encoders/encoders.9/self_attn/Transpose_4 1 1 /encoder/encoders/encoders.9/self_attn/Mul_1_output_0_splitncnn_1 /encoder/encoders/encoders.9/self_attn/Transpose_4_output_0 0=1
ConvolutionDepthWise1D   /encoder/encoders/encoders.9/self_attn/fsmn_block/Conv 1 1 /encoder/encoders/encoders.9/self_attn/Transpose_4_output_0 /encoder/encoders/encoders.9/self_attn/fsmn_block/Conv_output_0 0=320 1=11 4=5 6=3520 7=320
Permute                  /encoder/encoders/encoders.9/self_attn/Transpose_5 1 1 /encoder/encoders/encoders.9/self_attn/fsmn_block/Conv_output_0 /encoder/encoders/encoders.9/self_attn/Transpose_5_output_0 0=1
BinaryOp                 /encoder/encoders/encoders.9/self_attn/Add 2 1 /encoder/encoders/encoders.9/self_attn/Transpose_5_output_0 /encoder/encoders/encoders.9/self_attn/Mul_1_output_0_splitncnn_0 /encoder/encoders/encoders.9/self_attn/Add_output_0
BinaryOp                 /encoder/encoders/encoders.9/self_attn/Mul_2 2 1 /encoder/encoders/encoders.9/self_attn/Add_output_0 mask_3d_btd_splitncnn_58 /encoder/encoders/encoders.9/self_attn/Mul_2_output_0 0=2
BinaryOp                 /encoder/encoders/encoders.9/self_attn/Add_1 2 1 /encoder/encoders/encoders.9/self_attn/linear_out/Add_output_0 /encoder/encoders/encoders.9/self_attn/Mul_2_output_0 /encoder/encoders/encoders.9/self_attn/Add_1_output_0
BinaryOp                 /encoder/encoders/encoders.9/Add 2 1 /encoder/encoders/encoders.9/self_attn/Add_1_output_0 /encoder/encoders/encoders.8/Add_1_output_0_splitncnn_0 /encoder/encoders/encoders.9/Add_output_0
Split                    splitncnn_42             1 2 /encoder/encoders/encoders.9/Add_output_0 /encoder/encoders/encoders.9/Add_output_0_splitncnn_0 /encoder/encoders/encoders.9/Add_output_0_splitncnn_1
LayerNorm                /encoder/encoders/encoders.9/norm2/Add_1 1 1 /encoder/encoders/encoders.9/Add_output_0_splitncnn_1 /encoder/encoders/encoders.9/norm2/Add_1_output_0 0=320 1=1.000000e-12
InnerProduct             /encoder/encoders/encoders.9/feed_forward/w_1/MatMul 1 1 /encoder/encoders/encoders.9/norm2/Add_1_output_0 /encoder/encoders/encoders.9/feed_forward/activation/Relu_output_0 0=1280 1=1 2=409600 9=1
InnerProduct             /encoder/encoders/encoders.9/feed_forward/w_2/MatMul 1 1 /encoder/encoders/encoders.9/feed_forward/activation/Relu_output_0 /encoder/encoders/encoders.9/feed_forward/w_2/Add_output_0 0=320 1=1 2=409600
BinaryOp                 /encoder/encoders/encoders.9/Add_1 2 1 /encoder/encoders/encoders.9/feed_forward/w_2/Add_output_0 /encoder/encoders/encoders.9/Add_output_0_splitncnn_0 /encoder/encoders/encoders.9/Add_1_output_0
Split                    splitncnn_43             1 2 /encoder/encoders/encoders.9/Add_1_output_0 /encoder/encoders/encoders.9/Add_1_output_0_splitncnn_0 /encoder/encoders/encoders.9/Add_1_output_0_splitncnn_1
LayerNorm                /encoder/encoders/encoders.10/norm1/Add_1 1 1 /encoder/encoders/encoders.9/Add_1_output_0_splitncnn_1 /encoder/encoders/encoders.10/norm1/Add_1_output_0 0=320 1=1.000000e-12
Split                    splitncnn_44             1 4 /encoder/encoders/encoders.10/norm1/Add_1_output_0 /encoder/encoders/encoders.10/norm1/Add_1_output_0_splitncnn_0 /encoder/encoders/encoders.10/norm1/Add_1_output_0_splitncnn_1 /encoder/encoders/encoders.10/norm1/Add_1_output_0_splitncnn_2 /encoder/encoders/encoders.10/norm1/Add_1_output_0_splitncnn_3
InnerProduct             /encoder/encoders/encoders.10/self_attn/linear_w/MatMul 1 1 /encoder/encoders/encoders.10/norm1/Add_1_output_0_splitncnn_3 /encoder/encoders/encoders.10/self_attn/linear_w/Add_output_0 0=320 1=1 2=102400
MultiHeadAttention       /encoder/encoders/encoders.10/self_attn/linear_out/Add 3 1 /encoder/encoders/encoders.10/norm1/Add_1_output_0_splitncnn_2 /encoder/encoders/encoders.10/norm1/Add_1_output_0_splitncnn_1 /encoder/encoders/encoders.10/norm1/Add_1_output_0_splitncnn_0 /encoder/encoders/encoders.10/self_attn/linear_out/Add_output_0 0=320 1=4 2=102400 3=320 4=320
BinaryOp                 /encoder/encoders/encoders.10/self_attn/Mul_1 2 1 /encoder/encoders/encoders.10/self_attn/linear_w/Add_output_0 mask_3d_btd_splitncnn_57 /encoder/encoders/encoders.10/self_attn/Mul_1_output_0 0=2
Split                    splitncnn_45             1 2 /encoder/encoders/encoders.10/self_attn/Mul_1_output_0 /encoder/encoders/encoders.10/self_attn/Mul_1_output_0_splitncnn_0 /encoder/encoders/encoders.10/self_attn/Mul_1_output_0_splitncnn_1
Permute                  /encoder/encoders/encoders.10/self_attn/Transpose_4 1 1 /encoder/encoders/encoders.10/self_attn/Mul_1_output_0_splitncnn_1 /encoder/encoders/encoders.10/self_attn/Transpose_4_output_0 0=1
ConvolutionDepthWise1D   /encoder/encoders/encoders.10/self_attn/fsmn_block/Conv 1 1 /encoder/encoders/encoders.10/self_attn/Transpose_4_output_0 /encoder/encoders/encoders.10/self_attn/fsmn_block/Conv_output_0 0=320 1=11 4=5 6=3520 7=320
Permute                  /encoder/encoders/encoders.10/self_attn/Transpose_5 1 1 /encoder/encoders/encoders.10/self_attn/fsmn_block/Conv_output_0 /encoder/encoders/encoders.10/self_attn/Transpose_5_output_0 0=1
BinaryOp                 /encoder/encoders/encoders.10/self_attn/Add 2 1 /encoder/encoders/encoders.10/self_attn/Transpose_5_output_0 /encoder/encoders/encoders.10/self_attn/Mul_1_output_0_splitncnn_0 /encoder/encoders/encoders.10/self_attn/Add_output_0
BinaryOp                 /encoder/encoders/encoders.10/self_attn/Mul_2 2 1 /encoder/encoders/encoders.10/self_attn/Add_output_0 mask_3d_btd_splitncnn_56 /encoder/encoders/encoders.10/self_attn/Mul_2_output_0 0=2
BinaryOp                 /encoder/encoders/encoders.10/self_attn/Add_1 2 1 /encoder/encoders/encoders.10/self_attn/linear_out/Add_output_0 /encoder/encoders/encoders.10/self_attn/Mul_2_output_0 /encoder/encoders/encoders.10/self_attn/Add_1_output_0
BinaryOp                 /encoder/encoders/encoders.10/Add 2 1 /encoder/encoders/encoders.10/self_attn/Add_1_output_0 /encoder/encoders/encoders.9/Add_1_output_0_splitncnn_0 /encoder/encoders/encoders.10/Add_output_0
Split                    splitncnn_46             1 2 /encoder/encoders/encoders.10/Add_output_0 /encoder/encoders/encoders.10/Add_output_0_splitncnn_0 /encoder/encoders/encoders.10/Add_output_0_splitncnn_1
LayerNorm                /encoder/encoders/encoders.10/norm2/Add_1 1 1 /encoder/encoders/encoders.10/Add_output_0_splitncnn_1 /encoder/encoders/encoders.10/norm2/Add_1_output_0 0=320 1=1.000000e-12
InnerProduct             /encoder/encoders/encoders.10/feed_forward/w_1/MatMul 1 1 /encoder/encoders/encoders.10/norm2/Add_1_output_0 /encoder/encoders/encoders.10/feed_forward/activation/Relu_output_0 0=1280 1=1 2=409600 9=1
InnerProduct             /encoder/encoders/encoders.10/feed_forward/w_2/MatMul 1 1 /encoder/encoders/encoders.10/feed_forward/activation/Relu_output_0 /encoder/encoders/encoders.10/feed_forward/w_2/Add_output_0 0=320 1=1 2=409600
BinaryOp                 /encoder/encoders/encoders.10/Add_1 2 1 /encoder/encoders/encoders.10/feed_forward/w_2/Add_output_0 /encoder/encoders/encoders.10/Add_output_0_splitncnn_0 /encoder/encoders/encoders.10/Add_1_output_0
Split                    splitncnn_47             1 2 /encoder/encoders/encoders.10/Add_1_output_0 /encoder/encoders/encoders.10/Add_1_output_0_splitncnn_0 /encoder/encoders/encoders.10/Add_1_output_0_splitncnn_1
LayerNorm                /encoder/encoders/encoders.11/norm1/Add_1 1 1 /encoder/encoders/encoders.10/Add_1_output_0_splitncnn_1 /encoder/encoders/encoders.11/norm1/Add_1_output_0 0=320 1=1.000000e-12
Split                    splitncnn_48             1 4 /encoder/encoders/encoders.11/norm1/Add_1_output_0 /encoder/encoders/encoders.11/norm1/Add_1_output_0_splitncnn_0 /encoder/encoders/encoders.11/norm1/Add_1_output_0_splitncnn_1 /encoder/encoders/encoders.11/norm1/Add_1_output_0_splitncnn_2 /encoder/encoders/encoders.11/norm1/Add_1_output_0_splitncnn_3
InnerProduct             /encoder/encoders/encoders.11/self_attn/linear_w/MatMul 1 1 /encoder/encoders/encoders.11/norm1/Add_1_output_0_splitncnn_3 /encoder/encoders/encoders.11/self_attn/linear_w/Add_output_0 0=320 1=1 2=102400
MultiHeadAttention       /encoder/encoders/encoders.11/self_attn/linear_out/Add 3 1 /encoder/encoders/encoders.11/norm1/Add_1_output_0_splitncnn_2 /encoder/encoders/encoders.11/norm1/Add_1_output_0_splitncnn_1 /encoder/encoders/encoders.11/norm1/Add_1_output_0_splitncnn_0 /encoder/encoders/encoders.11/self_attn/linear_out/Add_output_0 0=320 1=4 2=102400 3=320 4=320
BinaryOp                 /encoder/encoders/encoders.11/self_attn/Mul_1 2 1 /encoder/encoders/encoders.11/self_attn/linear_w/Add_output_0 mask_3d_btd_splitncnn_55 /encoder/encoders/encoders.11/self_attn/Mul_1_output_0 0=2
Split                    splitncnn_49             1 2 /encoder/encoders/encoders.11/self_attn/Mul_1_output_0 /encoder/encoders/encoders.11/self_attn/Mul_1_output_0_splitncnn_0 /encoder/encoders/encoders.11/self_attn/Mul_1_output_0_splitncnn_1
Permute                  /encoder/encoders/encoders.11/self_attn/Transpose_4 1 1 /encoder/encoders/encoders.11/self_attn/Mul_1_output_0_splitncnn_1 /encoder/encoders/encoders.11/self_attn/Transpose_4_output_0 0=1
ConvolutionDepthWise1D   /encoder/encoders/encoders.11/self_attn/fsmn_block/Conv 1 1 /encoder/encoders/encoders.11/self_attn/Transpose_4_output_0 /encoder/encoders/encoders.11/self_attn/fsmn_block/Conv_output_0 0=320 1=11 4=5 6=3520 7=320
Permute                  /encoder/encoders/encoders.11/self_attn/Transpose_5 1 1 /encoder/encoders/encoders.11/self_attn/fsmn_block/Conv_output_0 /encoder/encoders/encoders.11/self_attn/Transpose_5_output_0 0=1
BinaryOp                 /encoder/encoders/encoders.11/self_attn/Add 2 1 /encoder/encoders/encoders.11/self_attn/Transpose_5_output_0 /encoder/encoders/encoders.11/self_attn/Mul_1_output_0_splitncnn_0 /encoder/encoders/encoders.11/self_attn/Add_output_0
BinaryOp                 /encoder/encoders/encoders.11/self_attn/Mul_2 2 1 /encoder/encoders/encoders.11/self_attn/Add_output_0 mask_3d_btd_splitncnn_54 /encoder/encoders/encoders.11/self_attn/Mul_2_output_0 0=2
BinaryOp                 /encoder/encoders/encoders.11/self_attn/Add_1 2 1 /encoder/encoders/encoders.11/self_attn/linear_out/Add_output_0 /encoder/encoders/encoders.11/self_attn/Mul_2_output_0 /encoder/encoders/encoders.11/self_attn/Add_1_output_0
BinaryOp                 /encoder/encoders/encoders.11/Add 2 1 /encoder/encoders/encoders.11/self_attn/Add_1_output_0 /encoder/encoders/encoders.10/Add_1_output_0_splitncnn_0 /encoder/encoders/encoders.11/Add_output_0
Split                    splitncnn_50             1 2 /encoder/encoders/encoders.11/Add_output_0 /encoder/encoders/encoders.11/Add_output_0_splitncnn_0 /encoder/encoders/encoders.11/Add_output_0_splitncnn_1
LayerNorm                /encoder/encoders/encoders.11/norm2/Add_1 1 1 /encoder/encoders/encoders.11/Add_output_0_splitncnn_1 /encoder/encoders/encoders.11/norm2/Add_1_output_0 0=320 1=1.000000e-12
InnerProduct             /encoder/encoders/encoders.11/feed_forward/w_1/MatMul 1 1 /encoder/encoders/encoders.11/norm2/Add_1_output_0 /encoder/encoders/encoders.11/feed_forward/activation/Relu_output_0 0=1280 1=1 2=409600 9=1
InnerProduct             /encoder/encoders/encoders.11/feed_forward/w_2/MatMul 1 1 /encoder/encoders/encoders.11/feed_forward/activation/Relu_output_0 /encoder/encoders/encoders.11/feed_forward/w_2/Add_output_0 0=320 1=1 2=409600
BinaryOp                 /encoder/encoders/encoders.11/Add_1 2 1 /encoder/encoders/encoders.11/feed_forward/w_2/Add_output_0 /encoder/encoders/encoders.11/Add_output_0_splitncnn_0 /encoder/encoders/encoders.11/Add_1_output_0
Split                    splitncnn_51             1 2 /encoder/encoders/encoders.11/Add_1_output_0 /encoder/encoders/encoders.11/Add_1_output_0_splitncnn_0 /encoder/encoders/encoders.11/Add_1_output_0_splitncnn_1
LayerNorm                /encoder/encoders/encoders.12/norm1/Add_1 1 1 /encoder/encoders/encoders.11/Add_1_output_0_splitncnn_1 /encoder/encoders/encoders.12/norm1/Add_1_output_0 0=320 1=1.000000e-12
Split                    splitncnn_52             1 4 /encoder/encoders/encoders.12/norm1/Add_1_output_0 /encoder/encoders/encoders.12/norm1/Add_1_output_0_splitncnn_0 /encoder/encoders/encoders.12/norm1/Add_1_output_0_splitncnn_1 /encoder/encoders/encoders.12/norm1/Add_1_output_0_splitncnn_2 /encoder/encoders/encoders.12/norm1/Add_1_output_0_splitncnn_3
InnerProduct             /encoder/encoders/encoders.12/self_attn/linear_w/MatMul 1 1 /encoder/encoders/encoders.12/norm1/Add_1_output_0_splitncnn_3 /encoder/encoders/encoders.12/self_attn/linear_w/Add_output_0 0=320 1=1 2=102400
MultiHeadAttention       /encoder/encoders/encoders.12/self_attn/linear_out/Add 3 1 /encoder/encoders/encoders.12/norm1/Add_1_output_0_splitncnn_2 /encoder/encoders/encoders.12/norm1/Add_1_output_0_splitncnn_1 /encoder/encoders/encoders.12/norm1/Add_1_output_0_splitncnn_0 /encoder/encoders/encoders.12/self_attn/linear_out/Add_output_0 0=320 1=4 2=102400 3=320 4=320
BinaryOp                 /encoder/encoders/encoders.12/self_attn/Mul_1 2 1 /encoder/encoders/encoders.12/self_attn/linear_w/Add_output_0 mask_3d_btd_splitncnn_53 /encoder/encoders/encoders.12/self_attn/Mul_1_output_0 0=2
Split                    splitncnn_53             1 2 /encoder/encoders/encoders.12/self_attn/Mul_1_output_0 /encoder/encoders/encoders.12/self_attn/Mul_1_output_0_splitncnn_0 /encoder/encoders/encoders.12/self_attn/Mul_1_output_0_splitncnn_1
Permute                  /encoder/encoders/encoders.12/self_attn/Transpose_4 1 1 /encoder/encoders/encoders.12/self_attn/Mul_1_output_0_splitncnn_1 /encoder/encoders/encoders.12/self_attn/Transpose_4_output_0 0=1
ConvolutionDepthWise1D   /encoder/encoders/encoders.12/self_attn/fsmn_block/Conv 1 1 /encoder/encoders/encoders.12/self_attn/Transpose_4_output_0 /encoder/encoders/encoders.12/self_attn/fsmn_block/Conv_output_0 0=320 1=11 4=5 6=3520 7=320
Permute                  /encoder/encoders/encoders.12/self_attn/Transpose_5 1 1 /encoder/encoders/encoders.12/self_attn/fsmn_block/Conv_output_0 /encoder/encoders/encoders.12/self_attn/Transpose_5_output_0 0=1
BinaryOp                 /encoder/encoders/encoders.12/self_attn/Add 2 1 /encoder/encoders/encoders.12/self_attn/Transpose_5_output_0 /encoder/encoders/encoders.12/self_attn/Mul_1_output_0_splitncnn_0 /encoder/encoders/encoders.12/self_attn/Add_output_0
BinaryOp                 /encoder/encoders/encoders.12/self_attn/Mul_2 2 1 /encoder/encoders/encoders.12/self_attn/Add_output_0 mask_3d_btd_splitncnn_52 /encoder/encoders/encoders.12/self_attn/Mul_2_output_0 0=2
BinaryOp                 /encoder/encoders/encoders.12/self_attn/Add_1 2 1 /encoder/encoders/encoders.12/self_attn/linear_out/Add_output_0 /encoder/encoders/encoders.12/self_attn/Mul_2_output_0 /encoder/encoders/encoders.12/self_attn/Add_1_output_0
BinaryOp                 /encoder/encoders/encoders.12/Add 2 1 /encoder/encoders/encoders.12/self_attn/Add_1_output_0 /encoder/encoders/encoders.11/Add_1_output_0_splitncnn_0 /encoder/encoders/encoders.12/Add_output_0
Split                    splitncnn_54             1 2 /encoder/encoders/encoders.12/Add_output_0 /encoder/encoders/encoders.12/Add_output_0_splitncnn_0 /encoder/encoders/encoders.12/Add_output_0_splitncnn_1
LayerNorm                /encoder/encoders/encoders.12/norm2/Add_1 1 1 /encoder/encoders/encoders.12/Add_output_0_splitncnn_1 /encoder/encoders/encoders.12/norm2/Add_1_output_0 0=320 1=1.000000e-12
InnerProduct             /encoder/encoders/encoders.12/feed_forward/w_1/MatMul 1 1 /encoder/encoders/encoders.12/norm2/Add_1_output_0 /encoder/encoders/encoders.12/feed_forward/activation/Relu_output_0 0=1280 1=1 2=409600 9=1
InnerProduct             /encoder/encoders/encoders.12/feed_forward/w_2/MatMul 1 1 /encoder/encoders/encoders.12/feed_forward/activation/Relu_output_0 /encoder/encoders/encoders.12/feed_forward/w_2/Add_output_0 0=320 1=1 2=409600
BinaryOp                 /encoder/encoders/encoders.12/Add_1 2 1 /encoder/encoders/encoders.12/feed_forward/w_2/Add_output_0 /encoder/encoders/encoders.12/Add_output_0_splitncnn_0 /encoder/encoders/encoders.12/Add_1_output_0
Split                    splitncnn_55             1 2 /encoder/encoders/encoders.12/Add_1_output_0 /encoder/encoders/encoders.12/Add_1_output_0_splitncnn_0 /encoder/encoders/encoders.12/Add_1_output_0_splitncnn_1
LayerNorm                /encoder/encoders/encoders.13/norm1/Add_1 1 1 /encoder/encoders/encoders.12/Add_1_output_0_splitncnn_1 /encoder/encoders/encoders.13/norm1/Add_1_output_0 0=320 1=1.000000e-12
Split                    splitncnn_56             1 4 /encoder/encoders/encoders.13/norm1/Add_1_output_0 /encoder/encoders/encoders.13/norm1/Add_1_output_0_splitncnn_0 /encoder/encoders/encoders.13/norm1/Add_1_output_0_splitncnn_1 /encoder/encoders/encoders.13/norm1/Add_1_output_0_splitncnn_2 /encoder/encoders/encoders.13/norm1/Add_1_output_0_splitncnn_3
InnerProduct             /encoder/encoders/encoders.13/self_attn/linear_w/MatMul 1 1 /encoder/encoders/encoders.13/norm1/Add_1_output_0_splitncnn_3 /encoder/encoders/encoders.13/self_attn/linear_w/Add_output_0 0=320 1=1 2=102400
MultiHeadAttention       /encoder/encoders/encoders.13/self_attn/linear_out/Add 3 1 /encoder/encoders/encoders.13/norm1/Add_1_output_0_splitncnn_2 /encoder/encoders/encoders.13/norm1/Add_1_output_0_splitncnn_1 /encoder/encoders/encoders.13/norm1/Add_1_output_0_splitncnn_0 /encoder/encoders/encoders.13/self_attn/linear_out/Add_output_0 0=320 1=4 2=102400 3=320 4=320
BinaryOp                 /encoder/encoders/encoders.13/self_attn/Mul_1 2 1 /encoder/encoders/encoders.13/self_attn/linear_w/Add_output_0 mask_3d_btd_splitncnn_51 /encoder/encoders/encoders.13/self_attn/Mul_1_output_0 0=2
Split                    splitncnn_57             1 2 /encoder/encoders/encoders.13/self_attn/Mul_1_output_0 /encoder/encoders/encoders.13/self_attn/Mul_1_output_0_splitncnn_0 /encoder/encoders/encoders.13/self_attn/Mul_1_output_0_splitncnn_1
Permute                  /encoder/encoders/encoders.13/self_attn/Transpose_4 1 1 /encoder/encoders/encoders.13/self_attn/Mul_1_output_0_splitncnn_1 /encoder/encoders/encoders.13/self_attn/Transpose_4_output_0 0=1
ConvolutionDepthWise1D   /encoder/encoders/encoders.13/self_attn/fsmn_block/Conv 1 1 /encoder/encoders/encoders.13/self_attn/Transpose_4_output_0 /encoder/encoders/encoders.13/self_attn/fsmn_block/Conv_output_0 0=320 1=11 4=5 6=3520 7=320
Permute                  /encoder/encoders/encoders.13/self_attn/Transpose_5 1 1 /encoder/encoders/encoders.13/self_attn/fsmn_block/Conv_output_0 /encoder/encoders/encoders.13/self_attn/Transpose_5_output_0 0=1
BinaryOp                 /encoder/encoders/encoders.13/self_attn/Add 2 1 /encoder/encoders/encoders.13/self_attn/Transpose_5_output_0 /encoder/encoders/encoders.13/self_attn/Mul_1_output_0_splitncnn_0 /encoder/encoders/encoders.13/self_attn/Add_output_0
BinaryOp                 /encoder/encoders/encoders.13/self_attn/Mul_2 2 1 /encoder/encoders/encoders.13/self_attn/Add_output_0 mask_3d_btd_splitncnn_50 /encoder/encoders/encoders.13/self_attn/Mul_2_output_0 0=2
BinaryOp                 /encoder/encoders/encoders.13/self_attn/Add_1 2 1 /encoder/encoders/encoders.13/self_attn/linear_out/Add_output_0 /encoder/encoders/encoders.13/self_attn/Mul_2_output_0 /encoder/encoders/encoders.13/self_attn/Add_1_output_0
BinaryOp                 /encoder/encoders/encoders.13/Add 2 1 /encoder/encoders/encoders.13/self_attn/Add_1_output_0 /encoder/encoders/encoders.12/Add_1_output_0_splitncnn_0 /encoder/encoders/encoders.13/Add_output_0
Split                    splitncnn_58             1 2 /encoder/encoders/encoders.13/Add_output_0 /encoder/encoders/encoders.13/Add_output_0_splitncnn_0 /encoder/encoders/encoders.13/Add_output_0_splitncnn_1
LayerNorm                /encoder/encoders/encoders.13/norm2/Add_1 1 1 /encoder/encoders/encoders.13/Add_output_0_splitncnn_1 /encoder/encoders/encoders.13/norm2/Add_1_output_0 0=320 1=1.000000e-12
InnerProduct             /encoder/encoders/encoders.13/feed_forward/w_1/MatMul 1 1 /encoder/encoders/encoders.13/norm2/Add_1_output_0 /encoder/encoders/encoders.13/feed_forward/activation/Relu_output_0 0=1280 1=1 2=409600 9=1
InnerProduct             /encoder/encoders/encoders.13/feed_forward/w_2/MatMul 1 1 /encoder/encoders/encoders.13/feed_forward/activation/Relu_output_0 /encoder/encoders/encoders.13/feed_forward/w_2/Add_output_0 0=320 1=1 2=409600
BinaryOp                 /encoder/encoders/encoders.13/Add_1 2 1 /encoder/encoders/encoders.13/feed_forward/w_2/Add_output_0 /encoder/encoders/encoders.13/Add_output_0_splitncnn_0 /encoder/encoders/encoders.13/Add_1_output_0
Split                    splitncnn_59             1 2 /encoder/encoders/encoders.13/Add_1_output_0 /encoder/encoders/encoders.13/Add_1_output_0_splitncnn_0 /encoder/encoders/encoders.13/Add_1_output_0_splitncnn_1
LayerNorm                /encoder/encoders/encoders.14/norm1/Add_1 1 1 /encoder/encoders/encoders.13/Add_1_output_0_splitncnn_1 /encoder/encoders/encoders.14/norm1/Add_1_output_0 0=320 1=1.000000e-12
Split                    splitncnn_60             1 4 /encoder/encoders/encoders.14/norm1/Add_1_output_0 /encoder/encoders/encoders.14/norm1/Add_1_output_0_splitncnn_0 /encoder/encoders/encoders.14/norm1/Add_1_output_0_splitncnn_1 /encoder/encoders/encoders.14/norm1/Add_1_output_0_splitncnn_2 /encoder/encoders/encoders.14/norm1/Add_1_output_0_splitncnn_3
InnerProduct             /encoder/encoders/encoders.14/self_attn/linear_w/MatMul 1 1 /encoder/encoders/encoders.14/norm1/Add_1_output_0_splitncnn_3 /encoder/encoders/encoders.14/self_attn/linear_w/Add_output_0 0=320 1=1 2=102400
MultiHeadAttention       /encoder/encoders/encoders.14/self_attn/linear_out/Add 3 1 /encoder/encoders/encoders.14/norm1/Add_1_output_0_splitncnn_2 /encoder/encoders/encoders.14/norm1/Add_1_output_0_splitncnn_1 /encoder/encoders/encoders.14/norm1/Add_1_output_0_splitncnn_0 /encoder/encoders/encoders.14/self_attn/linear_out/Add_output_0 0=320 1=4 2=102400 3=320 4=320
BinaryOp                 /encoder/encoders/encoders.14/self_attn/Mul_1 2 1 /encoder/encoders/encoders.14/self_attn/linear_w/Add_output_0 mask_3d_btd_splitncnn_49 /encoder/encoders/encoders.14/self_attn/Mul_1_output_0 0=2
Split                    splitncnn_61             1 2 /encoder/encoders/encoders.14/self_attn/Mul_1_output_0 /encoder/encoders/encoders.14/self_attn/Mul_1_output_0_splitncnn_0 /encoder/encoders/encoders.14/self_attn/Mul_1_output_0_splitncnn_1
Permute                  /encoder/encoders/encoders.14/self_attn/Transpose_4 1 1 /encoder/encoders/encoders.14/self_attn/Mul_1_output_0_splitncnn_1 /encoder/encoders/encoders.14/self_attn/Transpose_4_output_0 0=1
ConvolutionDepthWise1D   /encoder/encoders/encoders.14/self_attn/fsmn_block/Conv 1 1 /encoder/encoders/encoders.14/self_attn/Transpose_4_output_0 /encoder/encoders/encoders.14/self_attn/fsmn_block/Conv_output_0 0=320 1=11 4=5 6=3520 7=320
Permute                  /encoder/encoders/encoders.14/self_attn/Transpose_5 1 1 /encoder/encoders/encoders.14/self_attn/fsmn_block/Conv_output_0 /encoder/encoders/encoders.14/self_attn/Transpose_5_output_0 0=1
BinaryOp                 /encoder/encoders/encoders.14/self_attn/Add 2 1 /encoder/encoders/encoders.14/self_attn/Transpose_5_output_0 /encoder/encoders/encoders.14/self_attn/Mul_1_output_0_splitncnn_0 /encoder/encoders/encoders.14/self_attn/Add_output_0
BinaryOp                 /encoder/encoders/encoders.14/self_attn/Mul_2 2 1 /encoder/encoders/encoders.14/self_attn/Add_output_0 mask_3d_btd_splitncnn_48 /encoder/encoders/encoders.14/self_attn/Mul_2_output_0 0=2
BinaryOp                 /encoder/encoders/encoders.14/self_attn/Add_1 2 1 /encoder/encoders/encoders.14/self_attn/linear_out/Add_output_0 /encoder/encoders/encoders.14/self_attn/Mul_2_output_0 /encoder/encoders/encoders.14/self_attn/Add_1_output_0
BinaryOp                 /encoder/encoders/encoders.14/Add 2 1 /encoder/encoders/encoders.14/self_attn/Add_1_output_0 /encoder/encoders/encoders.13/Add_1_output_0_splitncnn_0 /encoder/encoders/encoders.14/Add_output_0
Split                    splitncnn_62             1 2 /encoder/encoders/encoders.14/Add_output_0 /encoder/encoders/encoders.14/Add_output_0_splitncnn_0 /encoder/encoders/encoders.14/Add_output_0_splitncnn_1
LayerNorm                /encoder/encoders/encoders.14/norm2/Add_1 1 1 /encoder/encoders/encoders.14/Add_output_0_splitncnn_1 /encoder/encoders/encoders.14/norm2/Add_1_output_0 0=320 1=1.000000e-12
InnerProduct             /encoder/encoders/encoders.14/feed_forward/w_1/MatMul 1 1 /encoder/encoders/encoders.14/norm2/Add_1_output_0 /encoder/encoders/encoders.14/feed_forward/activation/Relu_output_0 0=1280 1=1 2=409600 9=1
InnerProduct             /encoder/encoders/encoders.14/feed_forward/w_2/MatMul 1 1 /encoder/encoders/encoders.14/feed_forward/activation/Relu_output_0 /encoder/encoders/encoders.14/feed_forward/w_2/Add_output_0 0=320 1=1 2=409600
BinaryOp                 /encoder/encoders/encoders.14/Add_1 2 1 /encoder/encoders/encoders.14/feed_forward/w_2/Add_output_0 /encoder/encoders/encoders.14/Add_output_0_splitncnn_0 /encoder/encoders/encoders.14/Add_1_output_0
Split                    splitncnn_63             1 2 /encoder/encoders/encoders.14/Add_1_output_0 /encoder/encoders/encoders.14/Add_1_output_0_splitncnn_0 /encoder/encoders/encoders.14/Add_1_output_0_splitncnn_1
LayerNorm                /encoder/encoders/encoders.15/norm1/Add_1 1 1 /encoder/encoders/encoders.14/Add_1_output_0_splitncnn_1 /encoder/encoders/encoders.15/norm1/Add_1_output_0 0=320 1=1.000000e-12
Split                    splitncnn_64             1 4 /encoder/encoders/encoders.15/norm1/Add_1_output_0 /encoder/encoders/encoders.15/norm1/Add_1_output_0_splitncnn_0 /encoder/encoders/encoders.15/norm1/Add_1_output_0_splitncnn_1 /encoder/encoders/encoders.15/norm1/Add_1_output_0_splitncnn_2 /encoder/encoders/encoders.15/norm1/Add_1_output_0_splitncnn_3
InnerProduct             /encoder/encoders/encoders.15/self_attn/linear_w/MatMul 1 1 /encoder/encoders/encoders.15/norm1/Add_1_output_0_splitncnn_3 /encoder/encoders/encoders.15/self_attn/linear_w/Add_output_0 0=320 1=1 2=102400
MultiHeadAttention       /encoder/encoders/encoders.15/self_attn/linear_out/Add 3 1 /encoder/encoders/encoders.15/norm1/Add_1_output_0_splitncnn_2 /encoder/encoders/encoders.15/norm1/Add_1_output_0_splitncnn_1 /encoder/encoders/encoders.15/norm1/Add_1_output_0_splitncnn_0 /encoder/encoders/encoders.15/self_attn/linear_out/Add_output_0 0=320 1=4 2=102400 3=320 4=320
BinaryOp                 /encoder/encoders/encoders.15/self_attn/Mul_1 2 1 /encoder/encoders/encoders.15/self_attn/linear_w/Add_output_0 mask_3d_btd_splitncnn_47 /encoder/encoders/encoders.15/self_attn/Mul_1_output_0 0=2
Split                    splitncnn_65             1 2 /encoder/encoders/encoders.15/self_attn/Mul_1_output_0 /encoder/encoders/encoders.15/self_attn/Mul_1_output_0_splitncnn_0 /encoder/encoders/encoders.15/self_attn/Mul_1_output_0_splitncnn_1
Permute                  /encoder/encoders/encoders.15/self_attn/Transpose_4 1 1 /encoder/encoders/encoders.15/self_attn/Mul_1_output_0_splitncnn_1 /encoder/encoders/encoders.15/self_attn/Transpose_4_output_0 0=1
ConvolutionDepthWise1D   /encoder/encoders/encoders.15/self_attn/fsmn_block/Conv 1 1 /encoder/encoders/encoders.15/self_attn/Transpose_4_output_0 /encoder/encoders/encoders.15/self_attn/fsmn_block/Conv_output_0 0=320 1=11 4=5 6=3520 7=320
Permute                  /encoder/encoders/encoders.15/self_attn/Transpose_5 1 1 /encoder/encoders/encoders.15/self_attn/fsmn_block/Conv_output_0 /encoder/encoders/encoders.15/self_attn/Transpose_5_output_0 0=1
BinaryOp                 /encoder/encoders/encoders.15/self_attn/Add 2 1 /encoder/encoders/encoders.15/self_attn/Transpose_5_output_0 /encoder/encoders/encoders.15/self_attn/Mul_1_output_0_splitncnn_0 /encoder/encoders/encoders.15/self_attn/Add_output_0
BinaryOp                 /encoder/encoders/encoders.15/self_attn/Mul_2 2 1 /encoder/encoders/encoders.15/self_attn/Add_output_0 mask_3d_btd_splitncnn_46 /encoder/encoders/encoders.15/self_attn/Mul_2_output_0 0=2
BinaryOp                 /encoder/encoders/encoders.15/self_attn/Add_1 2 1 /encoder/encoders/encoders.15/self_attn/linear_out/Add_output_0 /encoder/encoders/encoders.15/self_attn/Mul_2_output_0 /encoder/encoders/encoders.15/self_attn/Add_1_output_0
BinaryOp                 /encoder/encoders/encoders.15/Add 2 1 /encoder/encoders/encoders.15/self_attn/Add_1_output_0 /encoder/encoders/encoders.14/Add_1_output_0_splitncnn_0 /encoder/encoders/encoders.15/Add_output_0
Split                    splitncnn_66             1 2 /encoder/encoders/encoders.15/Add_output_0 /encoder/encoders/encoders.15/Add_output_0_splitncnn_0 /encoder/encoders/encoders.15/Add_output_0_splitncnn_1
LayerNorm                /encoder/encoders/encoders.15/norm2/Add_1 1 1 /encoder/encoders/encoders.15/Add_output_0_splitncnn_1 /encoder/encoders/encoders.15/norm2/Add_1_output_0 0=320 1=1.000000e-12
InnerProduct             /encoder/encoders/encoders.15/feed_forward/w_1/MatMul 1 1 /encoder/encoders/encoders.15/norm2/Add_1_output_0 /encoder/encoders/encoders.15/feed_forward/activation/Relu_output_0 0=1280 1=1 2=409600 9=1
InnerProduct             /encoder/encoders/encoders.15/feed_forward/w_2/MatMul 1 1 /encoder/encoders/encoders.15/feed_forward/activation/Relu_output_0 /encoder/encoders/encoders.15/feed_forward/w_2/Add_output_0 0=320 1=1 2=409600
BinaryOp                 /encoder/encoders/encoders.15/Add_1 2 1 /encoder/encoders/encoders.15/feed_forward/w_2/Add_output_0 /encoder/encoders/encoders.15/Add_output_0_splitncnn_0 /encoder/encoders/encoders.15/Add_1_output_0
Split                    splitncnn_67             1 2 /encoder/encoders/encoders.15/Add_1_output_0 /encoder/encoders/encoders.15/Add_1_output_0_splitncnn_0 /encoder/encoders/encoders.15/Add_1_output_0_splitncnn_1
LayerNorm                /encoder/encoders/encoders.16/norm1/Add_1 1 1 /encoder/encoders/encoders.15/Add_1_output_0_splitncnn_1 /encoder/encoders/encoders.16/norm1/Add_1_output_0 0=320 1=1.000000e-12
Split                    splitncnn_68             1 4 /encoder/encoders/encoders.16/norm1/Add_1_output_0 /encoder/encoders/encoders.16/norm1/Add_1_output_0_splitncnn_0 /encoder/encoders/encoders.16/norm1/Add_1_output_0_splitncnn_1 /encoder/encoders/encoders.16/norm1/Add_1_output_0_splitncnn_2 /encoder/encoders/encoders.16/norm1/Add_1_output_0_splitncnn_3
InnerProduct             /encoder/encoders/encoders.16/self_attn/linear_w/MatMul 1 1 /encoder/encoders/encoders.16/norm1/Add_1_output_0_splitncnn_3 /encoder/encoders/encoders.16/self_attn/linear_w/Add_output_0 0=320 1=1 2=102400
MultiHeadAttention       /encoder/encoders/encoders.16/self_attn/linear_out/Add 3 1 /encoder/encoders/encoders.16/norm1/Add_1_output_0_splitncnn_2 /encoder/encoders/encoders.16/norm1/Add_1_output_0_splitncnn_1 /encoder/encoders/encoders.16/norm1/Add_1_output_0_splitncnn_0 /encoder/encoders/encoders.16/self_attn/linear_out/Add_output_0 0=320 1=4 2=102400 3=320 4=320
BinaryOp                 /encoder/encoders/encoders.16/self_attn/Mul_1 2 1 /encoder/encoders/encoders.16/self_attn/linear_w/Add_output_0 mask_3d_btd_splitncnn_45 /encoder/encoders/encoders.16/self_attn/Mul_1_output_0 0=2
Split                    splitncnn_69             1 2 /encoder/encoders/encoders.16/self_attn/Mul_1_output_0 /encoder/encoders/encoders.16/self_attn/Mul_1_output_0_splitncnn_0 /encoder/encoders/encoders.16/self_attn/Mul_1_output_0_splitncnn_1
Permute                  /encoder/encoders/encoders.16/self_attn/Transpose_4 1 1 /encoder/encoders/encoders.16/self_attn/Mul_1_output_0_splitncnn_1 /encoder/encoders/encoders.16/self_attn/Transpose_4_output_0 0=1
ConvolutionDepthWise1D   /encoder/encoders/encoders.16/self_attn/fsmn_block/Conv 1 1 /encoder/encoders/encoders.16/self_attn/Transpose_4_output_0 /encoder/encoders/encoders.16/self_attn/fsmn_block/Conv_output_0 0=320 1=11 4=5 6=3520 7=320
Permute                  /encoder/encoders/encoders.16/self_attn/Transpose_5 1 1 /encoder/encoders/encoders.16/self_attn/fsmn_block/Conv_output_0 /encoder/encoders/encoders.16/self_attn/Transpose_5_output_0 0=1
BinaryOp                 /encoder/encoders/encoders.16/self_attn/Add 2 1 /encoder/encoders/encoders.16/self_attn/Transpose_5_output_0 /encoder/encoders/encoders.16/self_attn/Mul_1_output_0_splitncnn_0 /encoder/encoders/encoders.16/self_attn/Add_output_0
BinaryOp                 /encoder/encoders/encoders.16/self_attn/Mul_2 2 1 /encoder/encoders/encoders.16/self_attn/Add_output_0 mask_3d_btd_splitncnn_44 /encoder/encoders/encoders.16/self_attn/Mul_2_output_0 0=2
BinaryOp                 /encoder/encoders/encoders.16/self_attn/Add_1 2 1 /encoder/encoders/encoders.16/self_attn/linear_out/Add_output_0 /encoder/encoders/encoders.16/self_attn/Mul_2_output_0 /encoder/encoders/encoders.16/self_attn/Add_1_output_0
BinaryOp                 /encoder/encoders/encoders.16/Add 2 1 /encoder/encoders/encoders.16/self_attn/Add_1_output_0 /encoder/encoders/encoders.15/Add_1_output_0_splitncnn_0 /encoder/encoders/encoders.16/Add_output_0
Split                    splitncnn_70             1 2 /encoder/encoders/encoders.16/Add_output_0 /encoder/encoders/encoders.16/Add_output_0_splitncnn_0 /encoder/encoders/encoders.16/Add_output_0_splitncnn_1
LayerNorm                /encoder/encoders/encoders.16/norm2/Add_1 1 1 /encoder/encoders/encoders.16/Add_output_0_splitncnn_1 /encoder/encoders/encoders.16/norm2/Add_1_output_0 0=320 1=1.000000e-12
InnerProduct             /encoder/encoders/encoders.16/feed_forward/w_1/MatMul 1 1 /encoder/encoders/encoders.16/norm2/Add_1_output_0 /encoder/encoders/encoders.16/feed_forward/activation/Relu_output_0 0=1280 1=1 2=409600 9=1
InnerProduct             /encoder/encoders/encoders.16/feed_forward/w_2/MatMul 1 1 /encoder/encoders/encoders.16/feed_forward/activation/Relu_output_0 /encoder/encoders/encoders.16/feed_forward/w_2/Add_output_0 0=320 1=1 2=409600
BinaryOp                 /encoder/encoders/encoders.16/Add_1 2 1 /encoder/encoders/encoders.16/feed_forward/w_2/Add_output_0 /encoder/encoders/encoders.16/Add_output_0_splitncnn_0 /encoder/encoders/encoders.16/Add_1_output_0
Split                    splitncnn_71             1 2 /encoder/encoders/encoders.16/Add_1_output_0 /encoder/encoders/encoders.16/Add_1_output_0_splitncnn_0 /encoder/encoders/encoders.16/Add_1_output_0_splitncnn_1
LayerNorm                /encoder/encoders/encoders.17/norm1/Add_1 1 1 /encoder/encoders/encoders.16/Add_1_output_0_splitncnn_1 /encoder/encoders/encoders.17/norm1/Add_1_output_0 0=320 1=1.000000e-12
Split                    splitncnn_72             1 4 /encoder/encoders/encoders.17/norm1/Add_1_output_0 /encoder/encoders/encoders.17/norm1/Add_1_output_0_splitncnn_0 /encoder/encoders/encoders.17/norm1/Add_1_output_0_splitncnn_1 /encoder/encoders/encoders.17/norm1/Add_1_output_0_splitncnn_2 /encoder/encoders/encoders.17/norm1/Add_1_output_0_splitncnn_3
InnerProduct             /encoder/encoders/encoders.17/self_attn/linear_w/MatMul 1 1 /encoder/encoders/encoders.17/norm1/Add_1_output_0_splitncnn_3 /encoder/encoders/encoders.17/self_attn/linear_w/Add_output_0 0=320 1=1 2=102400
MultiHeadAttention       /encoder/encoders/encoders.17/self_attn/linear_out/Add 3 1 /encoder/encoders/encoders.17/norm1/Add_1_output_0_splitncnn_2 /encoder/encoders/encoders.17/norm1/Add_1_output_0_splitncnn_1 /encoder/encoders/encoders.17/norm1/Add_1_output_0_splitncnn_0 /encoder/encoders/encoders.17/self_attn/linear_out/Add_output_0 0=320 1=4 2=102400 3=320 4=320
BinaryOp                 /encoder/encoders/encoders.17/self_attn/Mul_1 2 1 /encoder/encoders/encoders.17/self_attn/linear_w/Add_output_0 mask_3d_btd_splitncnn_43 /encoder/encoders/encoders.17/self_attn/Mul_1_output_0 0=2
Split                    splitncnn_73             1 2 /encoder/encoders/encoders.17/self_attn/Mul_1_output_0 /encoder/encoders/encoders.17/self_attn/Mul_1_output_0_splitncnn_0 /encoder/encoders/encoders.17/self_attn/Mul_1_output_0_splitncnn_1
Permute                  /encoder/encoders/encoders.17/self_attn/Transpose_4 1 1 /encoder/encoders/encoders.17/self_attn/Mul_1_output_0_splitncnn_1 /encoder/encoders/encoders.17/self_attn/Transpose_4_output_0 0=1
ConvolutionDepthWise1D   /encoder/encoders/encoders.17/self_attn/fsmn_block/Conv 1 1 /encoder/encoders/encoders.17/self_attn/Transpose_4_output_0 /encoder/encoders/encoders.17/self_attn/fsmn_block/Conv_output_0 0=320 1=11 4=5 6=3520 7=320
Permute                  /encoder/encoders/encoders.17/self_attn/Transpose_5 1 1 /encoder/encoders/encoders.17/self_attn/fsmn_block/Conv_output_0 /encoder/encoders/encoders.17/self_attn/Transpose_5_output_0 0=1
BinaryOp                 /encoder/encoders/encoders.17/self_attn/Add 2 1 /encoder/encoders/encoders.17/self_attn/Transpose_5_output_0 /encoder/encoders/encoders.17/self_attn/Mul_1_output_0_splitncnn_0 /encoder/encoders/encoders.17/self_attn/Add_output_0
BinaryOp                 /encoder/encoders/encoders.17/self_attn/Mul_2 2 1 /encoder/encoders/encoders.17/self_attn/Add_output_0 mask_3d_btd_splitncnn_42 /encoder/encoders/encoders.17/self_attn/Mul_2_output_0 0=2
BinaryOp                 /encoder/encoders/encoders.17/self_attn/Add_1 2 1 /encoder/encoders/encoders.17/self_attn/linear_out/Add_output_0 /encoder/encoders/encoders.17/self_attn/Mul_2_output_0 /encoder/encoders/encoders.17/self_attn/Add_1_output_0
BinaryOp                 /encoder/encoders/encoders.17/Add 2 1 /encoder/encoders/encoders.17/self_attn/Add_1_output_0 /encoder/encoders/encoders.16/Add_1_output_0_splitncnn_0 /encoder/encoders/encoders.17/Add_output_0
Split                    splitncnn_74             1 2 /encoder/encoders/encoders.17/Add_output_0 /encoder/encoders/encoders.17/Add_output_0_splitncnn_0 /encoder/encoders/encoders.17/Add_output_0_splitncnn_1
LayerNorm                /encoder/encoders/encoders.17/norm2/Add_1 1 1 /encoder/encoders/encoders.17/Add_output_0_splitncnn_1 /encoder/encoders/encoders.17/norm2/Add_1_output_0 0=320 1=1.000000e-12
InnerProduct             /encoder/encoders/encoders.17/feed_forward/w_1/MatMul 1 1 /encoder/encoders/encoders.17/norm2/Add_1_output_0 /encoder/encoders/encoders.17/feed_forward/activation/Relu_output_0 0=1280 1=1 2=409600 9=1
InnerProduct             /encoder/encoders/encoders.17/feed_forward/w_2/MatMul 1 1 /encoder/encoders/encoders.17/feed_forward/activation/Relu_output_0 /encoder/encoders/encoders.17/feed_forward/w_2/Add_output_0 0=320 1=1 2=409600
BinaryOp                 /encoder/encoders/encoders.17/Add_1 2 1 /encoder/encoders/encoders.17/feed_forward/w_2/Add_output_0 /encoder/encoders/encoders.17/Add_output_0_splitncnn_0 /encoder/encoders/encoders.17/Add_1_output_0
Split                    splitncnn_75             1 2 /encoder/encoders/encoders.17/Add_1_output_0 /encoder/encoders/encoders.17/Add_1_output_0_splitncnn_0 /encoder/encoders/encoders.17/Add_1_output_0_splitncnn_1
LayerNorm                /encoder/encoders/encoders.18/norm1/Add_1 1 1 /encoder/encoders/encoders.17/Add_1_output_0_splitncnn_1 /encoder/encoders/encoders.18/norm1/Add_1_output_0 0=320 1=1.000000e-12
Split                    splitncnn_76             1 4 /encoder/encoders/encoders.18/norm1/Add_1_output_0 /encoder/encoders/encoders.18/norm1/Add_1_output_0_splitncnn_0 /encoder/encoders/encoders.18/norm1/Add_1_output_0_splitncnn_1 /encoder/encoders/encoders.18/norm1/Add_1_output_0_splitncnn_2 /encoder/encoders/encoders.18/norm1/Add_1_output_0_splitncnn_3
InnerProduct             /encoder/encoders/encoders.18/self_attn/linear_w/MatMul 1 1 /encoder/encoders/encoders.18/norm1/Add_1_output_0_splitncnn_3 /encoder/encoders/encoders.18/self_attn/linear_w/Add_output_0 0=320 1=1 2=102400
MultiHeadAttention       /encoder/encoders/encoders.18/self_attn/linear_out/Add 3 1 /encoder/encoders/encoders.18/norm1/Add_1_output_0_splitncnn_2 /encoder/encoders/encoders.18/norm1/Add_1_output_0_splitncnn_1 /encoder/encoders/encoders.18/norm1/Add_1_output_0_splitncnn_0 /encoder/encoders/encoders.18/self_attn/linear_out/Add_output_0 0=320 1=4 2=102400 3=320 4=320
BinaryOp                 /encoder/encoders/encoders.18/self_attn/Mul_1 2 1 /encoder/encoders/encoders.18/self_attn/linear_w/Add_output_0 mask_3d_btd_splitncnn_41 /encoder/encoders/encoders.18/self_attn/Mul_1_output_0 0=2
Split                    splitncnn_77             1 2 /encoder/encoders/encoders.18/self_attn/Mul_1_output_0 /encoder/encoders/encoders.18/self_attn/Mul_1_output_0_splitncnn_0 /encoder/encoders/encoders.18/self_attn/Mul_1_output_0_splitncnn_1
Permute                  /encoder/encoders/encoders.18/self_attn/Transpose_4 1 1 /encoder/encoders/encoders.18/self_attn/Mul_1_output_0_splitncnn_1 /encoder/encoders/encoders.18/self_attn/Transpose_4_output_0 0=1
ConvolutionDepthWise1D   /encoder/encoders/encoders.18/self_attn/fsmn_block/Conv 1 1 /encoder/encoders/encoders.18/self_attn/Transpose_4_output_0 /encoder/encoders/encoders.18/self_attn/fsmn_block/Conv_output_0 0=320 1=11 4=5 6=3520 7=320
Permute                  /encoder/encoders/encoders.18/self_attn/Transpose_5 1 1 /encoder/encoders/encoders.18/self_attn/fsmn_block/Conv_output_0 /encoder/encoders/encoders.18/self_attn/Transpose_5_output_0 0=1
BinaryOp                 /encoder/encoders/encoders.18/self_attn/Add 2 1 /encoder/encoders/encoders.18/self_attn/Transpose_5_output_0 /encoder/encoders/encoders.18/self_attn/Mul_1_output_0_splitncnn_0 /encoder/encoders/encoders.18/self_attn/Add_output_0
BinaryOp                 /encoder/encoders/encoders.18/self_attn/Mul_2 2 1 /encoder/encoders/encoders.18/self_attn/Add_output_0 mask_3d_btd_splitncnn_40 /encoder/encoders/encoders.18/self_attn/Mul_2_output_0 0=2
BinaryOp                 /encoder/encoders/encoders.18/self_attn/Add_1 2 1 /encoder/encoders/encoders.18/self_attn/linear_out/Add_output_0 /encoder/encoders/encoders.18/self_attn/Mul_2_output_0 /encoder/encoders/encoders.18/self_attn/Add_1_output_0
BinaryOp                 /encoder/encoders/encoders.18/Add 2 1 /encoder/encoders/encoders.18/self_attn/Add_1_output_0 /encoder/encoders/encoders.17/Add_1_output_0_splitncnn_0 /encoder/encoders/encoders.18/Add_output_0
Split                    splitncnn_78             1 2 /encoder/encoders/encoders.18/Add_output_0 /encoder/encoders/encoders.18/Add_output_0_splitncnn_0 /encoder/encoders/encoders.18/Add_output_0_splitncnn_1
LayerNorm                /encoder/encoders/encoders.18/norm2/Add_1 1 1 /encoder/encoders/encoders.18/Add_output_0_splitncnn_1 /encoder/encoders/encoders.18/norm2/Add_1_output_0 0=320 1=1.000000e-12
InnerProduct             /encoder/encoders/encoders.18/feed_forward/w_1/MatMul 1 1 /encoder/encoders/encoders.18/norm2/Add_1_output_0 /encoder/encoders/encoders.18/feed_forward/activation/Relu_output_0 0=1280 1=1 2=409600 9=1
InnerProduct             /encoder/encoders/encoders.18/feed_forward/w_2/MatMul 1 1 /encoder/encoders/encoders.18/feed_forward/activation/Relu_output_0 /encoder/encoders/encoders.18/feed_forward/w_2/Add_output_0 0=320 1=1 2=409600
BinaryOp                 /encoder/encoders/encoders.18/Add_1 2 1 /encoder/encoders/encoders.18/feed_forward/w_2/Add_output_0 /encoder/encoders/encoders.18/Add_output_0_splitncnn_0 /encoder/encoders/encoders.18/Add_1_output_0
Split                    splitncnn_79             1 2 /encoder/encoders/encoders.18/Add_1_output_0 /encoder/encoders/encoders.18/Add_1_output_0_splitncnn_0 /encoder/encoders/encoders.18/Add_1_output_0_splitncnn_1
LayerNorm                /encoder/encoders/encoders.19/norm1/Add_1 1 1 /encoder/encoders/encoders.18/Add_1_output_0_splitncnn_1 /encoder/encoders/encoders.19/norm1/Add_1_output_0 0=320 1=1.000000e-12
Split                    splitncnn_80             1 4 /encoder/encoders/encoders.19/norm1/Add_1_output_0 /encoder/encoders/encoders.19/norm1/Add_1_output_0_splitncnn_0 /encoder/encoders/encoders.19/norm1/Add_1_output_0_splitncnn_1 /encoder/encoders/encoders.19/norm1/Add_1_output_0_splitncnn_2 /encoder/encoders/encoders.19/norm1/Add_1_output_0_splitncnn_3
InnerProduct             /encoder/encoders/encoders.19/self_attn/linear_w/MatMul 1 1 /encoder/encoders/encoders.19/norm1/Add_1_output_0_splitncnn_3 /encoder/encoders/encoders.19/self_attn/linear_w/Add_output_0 0=320 1=1 2=102400
MultiHeadAttention       /encoder/encoders/encoders.19/self_attn/linear_out/Add 3 1 /encoder/encoders/encoders.19/norm1/Add_1_output_0_splitncnn_2 /encoder/encoders/encoders.19/norm1/Add_1_output_0_splitncnn_1 /encoder/encoders/encoders.19/norm1/Add_1_output_0_splitncnn_0 /encoder/encoders/encoders.19/self_attn/linear_out/Add_output_0 0=320 1=4 2=102400 3=320 4=320
BinaryOp                 /encoder/encoders/encoders.19/self_attn/Mul_1 2 1 /encoder/encoders/encoders.19/self_attn/linear_w/Add_output_0 mask_3d_btd_splitncnn_39 /encoder/encoders/encoders.19/self_attn/Mul_1_output_0 0=2
Split                    splitncnn_81             1 2 /encoder/encoders/encoders.19/self_attn/Mul_1_output_0 /encoder/encoders/encoders.19/self_attn/Mul_1_output_0_splitncnn_0 /encoder/encoders/encoders.19/self_attn/Mul_1_output_0_splitncnn_1
Permute                  /encoder/encoders/encoders.19/self_attn/Transpose_4 1 1 /encoder/encoders/encoders.19/self_attn/Mul_1_output_0_splitncnn_1 /encoder/encoders/encoders.19/self_attn/Transpose_4_output_0 0=1
ConvolutionDepthWise1D   /encoder/encoders/encoders.19/self_attn/fsmn_block/Conv 1 1 /encoder/encoders/encoders.19/self_attn/Transpose_4_output_0 /encoder/encoders/encoders.19/self_attn/fsmn_block/Conv_output_0 0=320 1=11 4=5 6=3520 7=320
Permute                  /encoder/encoders/encoders.19/self_attn/Transpose_5 1 1 /encoder/encoders/encoders.19/self_attn/fsmn_block/Conv_output_0 /encoder/encoders/encoders.19/self_attn/Transpose_5_output_0 0=1
BinaryOp                 /encoder/encoders/encoders.19/self_attn/Add 2 1 /encoder/encoders/encoders.19/self_attn/Transpose_5_output_0 /encoder/encoders/encoders.19/self_attn/Mul_1_output_0_splitncnn_0 /encoder/encoders/encoders.19/self_attn/Add_output_0
BinaryOp                 /encoder/encoders/encoders.19/self_attn/Mul_2 2 1 /encoder/encoders/encoders.19/self_attn/Add_output_0 mask_3d_btd_splitncnn_38 /encoder/encoders/encoders.19/self_attn/Mul_2_output_0 0=2
BinaryOp                 /encoder/encoders/encoders.19/self_attn/Add_1 2 1 /encoder/encoders/encoders.19/self_attn/linear_out/Add_output_0 /encoder/encoders/encoders.19/self_attn/Mul_2_output_0 /encoder/encoders/encoders.19/self_attn/Add_1_output_0
BinaryOp                 /encoder/encoders/encoders.19/Add 2 1 /encoder/encoders/encoders.19/self_attn/Add_1_output_0 /encoder/encoders/encoders.18/Add_1_output_0_splitncnn_0 /encoder/encoders/encoders.19/Add_output_0
Split                    splitncnn_82             1 2 /encoder/encoders/encoders.19/Add_output_0 /encoder/encoders/encoders.19/Add_output_0_splitncnn_0 /encoder/encoders/encoders.19/Add_output_0_splitncnn_1
LayerNorm                /encoder/encoders/encoders.19/norm2/Add_1 1 1 /encoder/encoders/encoders.19/Add_output_0_splitncnn_1 /encoder/encoders/encoders.19/norm2/Add_1_output_0 0=320 1=1.000000e-12
InnerProduct             /encoder/encoders/encoders.19/feed_forward/w_1/MatMul 1 1 /encoder/encoders/encoders.19/norm2/Add_1_output_0 /encoder/encoders/encoders.19/feed_forward/activation/Relu_output_0 0=1280 1=1 2=409600 9=1
InnerProduct             /encoder/encoders/encoders.19/feed_forward/w_2/MatMul 1 1 /encoder/encoders/encoders.19/feed_forward/activation/Relu_output_0 /encoder/encoders/encoders.19/feed_forward/w_2/Add_output_0 0=320 1=1 2=409600
BinaryOp                 /encoder/encoders/encoders.19/Add_1 2 1 /encoder/encoders/encoders.19/feed_forward/w_2/Add_output_0 /encoder/encoders/encoders.19/Add_output_0_splitncnn_0 /encoder/encoders/encoders.19/Add_1_output_0
Split                    splitncnn_83             1 2 /encoder/encoders/encoders.19/Add_1_output_0 /encoder/encoders/encoders.19/Add_1_output_0_splitncnn_0 /encoder/encoders/encoders.19/Add_1_output_0_splitncnn_1
LayerNorm                /encoder/encoders/encoders.20/norm1/Add_1 1 1 /encoder/encoders/encoders.19/Add_1_output_0_splitncnn_1 /encoder/encoders/encoders.20/norm1/Add_1_output_0 0=320 1=1.000000e-12
Split                    splitncnn_84             1 4 /encoder/encoders/encoders.20/norm1/Add_1_output_0 /encoder/encoders/encoders.20/norm1/Add_1_output_0_splitncnn_0 /encoder/encoders/encoders.20/norm1/Add_1_output_0_splitncnn_1 /encoder/encoders/encoders.20/norm1/Add_1_output_0_splitncnn_2 /encoder/encoders/encoders.20/norm1/Add_1_output_0_splitncnn_3
InnerProduct             /encoder/encoders/encoders.20/self_attn/linear_w/MatMul 1 1 /encoder/encoders/encoders.20/norm1/Add_1_output_0_splitncnn_3 /encoder/encoders/encoders.20/self_attn/linear_w/Add_output_0 0=320 1=1 2=102400
MultiHeadAttention       /encoder/encoders/encoders.20/self_attn/linear_out/Add 3 1 /encoder/encoders/encoders.20/norm1/Add_1_output_0_splitncnn_2 /encoder/encoders/encoders.20/norm1/Add_1_output_0_splitncnn_1 /encoder/encoders/encoders.20/norm1/Add_1_output_0_splitncnn_0 /encoder/encoders/encoders.20/self_attn/linear_out/Add_output_0 0=320 1=4 2=102400 3=320 4=320
BinaryOp                 /encoder/encoders/encoders.20/self_attn/Mul_1 2 1 /encoder/encoders/encoders.20/self_attn/linear_w/Add_output_0 mask_3d_btd_splitncnn_37 /encoder/encoders/encoders.20/self_attn/Mul_1_output_0 0=2
Split                    splitncnn_85             1 2 /encoder/encoders/encoders.20/self_attn/Mul_1_output_0 /encoder/encoders/encoders.20/self_attn/Mul_1_output_0_splitncnn_0 /encoder/encoders/encoders.20/self_attn/Mul_1_output_0_splitncnn_1
Permute                  /encoder/encoders/encoders.20/self_attn/Transpose_4 1 1 /encoder/encoders/encoders.20/self_attn/Mul_1_output_0_splitncnn_1 /encoder/encoders/encoders.20/self_attn/Transpose_4_output_0 0=1
ConvolutionDepthWise1D   /encoder/encoders/encoders.20/self_attn/fsmn_block/Conv 1 1 /encoder/encoders/encoders.20/self_attn/Transpose_4_output_0 /encoder/encoders/encoders.20/self_attn/fsmn_block/Conv_output_0 0=320 1=11 4=5 6=3520 7=320
Permute                  /encoder/encoders/encoders.20/self_attn/Transpose_5 1 1 /encoder/encoders/encoders.20/self_attn/fsmn_block/Conv_output_0 /encoder/encoders/encoders.20/self_attn/Transpose_5_output_0 0=1
BinaryOp                 /encoder/encoders/encoders.20/self_attn/Add 2 1 /encoder/encoders/encoders.20/self_attn/Transpose_5_output_0 /encoder/encoders/encoders.20/self_attn/Mul_1_output_0_splitncnn_0 /encoder/encoders/encoders.20/self_attn/Add_output_0
BinaryOp                 /encoder/encoders/encoders.20/self_attn/Mul_2 2 1 /encoder/encoders/encoders.20/self_attn/Add_output_0 mask_3d_btd_splitncnn_36 /encoder/encoders/encoders.20/self_attn/Mul_2_output_0 0=2
BinaryOp                 /encoder/encoders/encoders.20/self_attn/Add_1 2 1 /encoder/encoders/encoders.20/self_attn/linear_out/Add_output_0 /encoder/encoders/encoders.20/self_attn/Mul_2_output_0 /encoder/encoders/encoders.20/self_attn/Add_1_output_0
BinaryOp                 /encoder/encoders/encoders.20/Add 2 1 /encoder/encoders/encoders.20/self_attn/Add_1_output_0 /encoder/encoders/encoders.19/Add_1_output_0_splitncnn_0 /encoder/encoders/encoders.20/Add_output_0
Split                    splitncnn_86             1 2 /encoder/encoders/encoders.20/Add_output_0 /encoder/encoders/encoders.20/Add_output_0_splitncnn_0 /encoder/encoders/encoders.20/Add_output_0_splitncnn_1
LayerNorm                /encoder/encoders/encoders.20/norm2/Add_1 1 1 /encoder/encoders/encoders.20/Add_output_0_splitncnn_1 /encoder/encoders/encoders.20/norm2/Add_1_output_0 0=320 1=1.000000e-12
InnerProduct             /encoder/encoders/encoders.20/feed_forward/w_1/MatMul 1 1 /encoder/encoders/encoders.20/norm2/Add_1_output_0 /encoder/encoders/encoders.20/feed_forward/activation/Relu_output_0 0=1280 1=1 2=409600 9=1
InnerProduct             /encoder/encoders/encoders.20/feed_forward/w_2/MatMul 1 1 /encoder/encoders/encoders.20/feed_forward/activation/Relu_output_0 /encoder/encoders/encoders.20/feed_forward/w_2/Add_output_0 0=320 1=1 2=409600
BinaryOp                 /encoder/encoders/encoders.20/Add_1 2 1 /encoder/encoders/encoders.20/feed_forward/w_2/Add_output_0 /encoder/encoders/encoders.20/Add_output_0_splitncnn_0 /encoder/encoders/encoders.20/Add_1_output_0
Split                    splitncnn_87             1 2 /encoder/encoders/encoders.20/Add_1_output_0 /encoder/encoders/encoders.20/Add_1_output_0_splitncnn_0 /encoder/encoders/encoders.20/Add_1_output_0_splitncnn_1
LayerNorm                /encoder/encoders/encoders.21/norm1/Add_1 1 1 /encoder/encoders/encoders.20/Add_1_output_0_splitncnn_1 /encoder/encoders/encoders.21/norm1/Add_1_output_0 0=320 1=1.000000e-12
Split                    splitncnn_88             1 4 /encoder/encoders/encoders.21/norm1/Add_1_output_0 /encoder/encoders/encoders.21/norm1/Add_1_output_0_splitncnn_0 /encoder/encoders/encoders.21/norm1/Add_1_output_0_splitncnn_1 /encoder/encoders/encoders.21/norm1/Add_1_output_0_splitncnn_2 /encoder/encoders/encoders.21/norm1/Add_1_output_0_splitncnn_3
InnerProduct             /encoder/encoders/encoders.21/self_attn/linear_w/MatMul 1 1 /encoder/encoders/encoders.21/norm1/Add_1_output_0_splitncnn_3 /encoder/encoders/encoders.21/self_attn/linear_w/Add_output_0 0=320 1=1 2=102400
MultiHeadAttention       /encoder/encoders/encoders.21/self_attn/linear_out/Add 3 1 /encoder/encoders/encoders.21/norm1/Add_1_output_0_splitncnn_2 /encoder/encoders/encoders.21/norm1/Add_1_output_0_splitncnn_1 /encoder/encoders/encoders.21/norm1/Add_1_output_0_splitncnn_0 /encoder/encoders/encoders.21/self_attn/linear_out/Add_output_0 0=320 1=4 2=102400 3=320 4=320
BinaryOp                 /encoder/encoders/encoders.21/self_attn/Mul_1 2 1 /encoder/encoders/encoders.21/self_attn/linear_w/Add_output_0 mask_3d_btd_splitncnn_35 /encoder/encoders/encoders.21/self_attn/Mul_1_output_0 0=2
Split                    splitncnn_89             1 2 /encoder/encoders/encoders.21/self_attn/Mul_1_output_0 /encoder/encoders/encoders.21/self_attn/Mul_1_output_0_splitncnn_0 /encoder/encoders/encoders.21/self_attn/Mul_1_output_0_splitncnn_1
Permute                  /encoder/encoders/encoders.21/self_attn/Transpose_4 1 1 /encoder/encoders/encoders.21/self_attn/Mul_1_output_0_splitncnn_1 /encoder/encoders/encoders.21/self_attn/Transpose_4_output_0 0=1
ConvolutionDepthWise1D   /encoder/encoders/encoders.21/self_attn/fsmn_block/Conv 1 1 /encoder/encoders/encoders.21/self_attn/Transpose_4_output_0 /encoder/encoders/encoders.21/self_attn/fsmn_block/Conv_output_0 0=320 1=11 4=5 6=3520 7=320
Permute                  /encoder/encoders/encoders.21/self_attn/Transpose_5 1 1 /encoder/encoders/encoders.21/self_attn/fsmn_block/Conv_output_0 /encoder/encoders/encoders.21/self_attn/Transpose_5_output_0 0=1
BinaryOp                 /encoder/encoders/encoders.21/self_attn/Add 2 1 /encoder/encoders/encoders.21/self_attn/Transpose_5_output_0 /encoder/encoders/encoders.21/self_attn/Mul_1_output_0_splitncnn_0 /encoder/encoders/encoders.21/self_attn/Add_output_0
BinaryOp                 /encoder/encoders/encoders.21/self_attn/Mul_2 2 1 /encoder/encoders/encoders.21/self_attn/Add_output_0 mask_3d_btd_splitncnn_34 /encoder/encoders/encoders.21/self_attn/Mul_2_output_0 0=2
BinaryOp                 /encoder/encoders/encoders.21/self_attn/Add_1 2 1 /encoder/encoders/encoders.21/self_attn/linear_out/Add_output_0 /encoder/encoders/encoders.21/self_attn/Mul_2_output_0 /encoder/encoders/encoders.21/self_attn/Add_1_output_0
BinaryOp                 /encoder/encoders/encoders.21/Add 2 1 /encoder/encoders/encoders.21/self_attn/Add_1_output_0 /encoder/encoders/encoders.20/Add_1_output_0_splitncnn_0 /encoder/encoders/encoders.21/Add_output_0
Split                    splitncnn_90             1 2 /encoder/encoders/encoders.21/Add_output_0 /encoder/encoders/encoders.21/Add_output_0_splitncnn_0 /encoder/encoders/encoders.21/Add_output_0_splitncnn_1
LayerNorm                /encoder/encoders/encoders.21/norm2/Add_1 1 1 /encoder/encoders/encoders.21/Add_output_0_splitncnn_1 /encoder/encoders/encoders.21/norm2/Add_1_output_0 0=320 1=1.000000e-12
InnerProduct             /encoder/encoders/encoders.21/feed_forward/w_1/MatMul 1 1 /encoder/encoders/encoders.21/norm2/Add_1_output_0 /encoder/encoders/encoders.21/feed_forward/activation/Relu_output_0 0=1280 1=1 2=409600 9=1
InnerProduct             /encoder/encoders/encoders.21/feed_forward/w_2/MatMul 1 1 /encoder/encoders/encoders.21/feed_forward/activation/Relu_output_0 /encoder/encoders/encoders.21/feed_forward/w_2/Add_output_0 0=320 1=1 2=409600
BinaryOp                 /encoder/encoders/encoders.21/Add_1 2 1 /encoder/encoders/encoders.21/feed_forward/w_2/Add_output_0 /encoder/encoders/encoders.21/Add_output_0_splitncnn_0 /encoder/encoders/encoders.21/Add_1_output_0
Split                    splitncnn_91             1 2 /encoder/encoders/encoders.21/Add_1_output_0 /encoder/encoders/encoders.21/Add_1_output_0_splitncnn_0 /encoder/encoders/encoders.21/Add_1_output_0_splitncnn_1
LayerNorm                /encoder/encoders/encoders.22/norm1/Add_1 1 1 /encoder/encoders/encoders.21/Add_1_output_0_splitncnn_1 /encoder/encoders/encoders.22/norm1/Add_1_output_0 0=320 1=1.000000e-12
Split                    splitncnn_92             1 4 /encoder/encoders/encoders.22/norm1/Add_1_output_0 /encoder/encoders/encoders.22/norm1/Add_1_output_0_splitncnn_0 /encoder/encoders/encoders.22/norm1/Add_1_output_0_splitncnn_1 /encoder/encoders/encoders.22/norm1/Add_1_output_0_splitncnn_2 /encoder/encoders/encoders.22/norm1/Add_1_output_0_splitncnn_3
InnerProduct             /encoder/encoders/encoders.22/self_attn/linear_w/MatMul 1 1 /encoder/encoders/encoders.22/norm1/Add_1_output_0_splitncnn_3 /encoder/encoders/encoders.22/self_attn/linear_w/Add_output_0 0=320 1=1 2=102400
MultiHeadAttention       /encoder/encoders/encoders.22/self_attn/linear_out/Add 3 1 /encoder/encoders/encoders.22/norm1/Add_1_output_0_splitncnn_2 /encoder/encoders/encoders.22/norm1/Add_1_output_0_splitncnn_1 /encoder/encoders/encoders.22/norm1/Add_1_output_0_splitncnn_0 /encoder/encoders/encoders.22/self_attn/linear_out/Add_output_0 0=320 1=4 2=102400 3=320 4=320
BinaryOp                 /encoder/encoders/encoders.22/self_attn/Mul_1 2 1 /encoder/encoders/encoders.22/self_attn/linear_w/Add_output_0 mask_3d_btd_splitncnn_33 /encoder/encoders/encoders.22/self_attn/Mul_1_output_0 0=2
Split                    splitncnn_93             1 2 /encoder/encoders/encoders.22/self_attn/Mul_1_output_0 /encoder/encoders/encoders.22/self_attn/Mul_1_output_0_splitncnn_0 /encoder/encoders/encoders.22/self_attn/Mul_1_output_0_splitncnn_1
Permute                  /encoder/encoders/encoders.22/self_attn/Transpose_4 1 1 /encoder/encoders/encoders.22/self_attn/Mul_1_output_0_splitncnn_1 /encoder/encoders/encoders.22/self_attn/Transpose_4_output_0 0=1
ConvolutionDepthWise1D   /encoder/encoders/encoders.22/self_attn/fsmn_block/Conv 1 1 /encoder/encoders/encoders.22/self_attn/Transpose_4_output_0 /encoder/encoders/encoders.22/self_attn/fsmn_block/Conv_output_0 0=320 1=11 4=5 6=3520 7=320
Permute                  /encoder/encoders/encoders.22/self_attn/Transpose_5 1 1 /encoder/encoders/encoders.22/self_attn/fsmn_block/Conv_output_0 /encoder/encoders/encoders.22/self_attn/Transpose_5_output_0 0=1
BinaryOp                 /encoder/encoders/encoders.22/self_attn/Add 2 1 /encoder/encoders/encoders.22/self_attn/Transpose_5_output_0 /encoder/encoders/encoders.22/self_attn/Mul_1_output_0_splitncnn_0 /encoder/encoders/encoders.22/self_attn/Add_output_0
BinaryOp                 /encoder/encoders/encoders.22/self_attn/Mul_2 2 1 /encoder/encoders/encoders.22/self_attn/Add_output_0 mask_3d_btd_splitncnn_32 /encoder/encoders/encoders.22/self_attn/Mul_2_output_0 0=2
BinaryOp                 /encoder/encoders/encoders.22/self_attn/Add_1 2 1 /encoder/encoders/encoders.22/self_attn/linear_out/Add_output_0 /encoder/encoders/encoders.22/self_attn/Mul_2_output_0 /encoder/encoders/encoders.22/self_attn/Add_1_output_0
BinaryOp                 /encoder/encoders/encoders.22/Add 2 1 /encoder/encoders/encoders.22/self_attn/Add_1_output_0 /encoder/encoders/encoders.21/Add_1_output_0_splitncnn_0 /encoder/encoders/encoders.22/Add_output_0
Split                    splitncnn_94             1 2 /encoder/encoders/encoders.22/Add_output_0 /encoder/encoders/encoders.22/Add_output_0_splitncnn_0 /encoder/encoders/encoders.22/Add_output_0_splitncnn_1
LayerNorm                /encoder/encoders/encoders.22/norm2/Add_1 1 1 /encoder/encoders/encoders.22/Add_output_0_splitncnn_1 /encoder/encoders/encoders.22/norm2/Add_1_output_0 0=320 1=1.000000e-12
InnerProduct             /encoder/encoders/encoders.22/feed_forward/w_1/MatMul 1 1 /encoder/encoders/encoders.22/norm2/Add_1_output_0 /encoder/encoders/encoders.22/feed_forward/activation/Relu_output_0 0=1280 1=1 2=409600 9=1
InnerProduct             /encoder/encoders/encoders.22/feed_forward/w_2/MatMul 1 1 /encoder/encoders/encoders.22/feed_forward/activation/Relu_output_0 /encoder/encoders/encoders.22/feed_forward/w_2/Add_output_0 0=320 1=1 2=409600
BinaryOp                 /encoder/encoders/encoders.22/Add_1 2 1 /encoder/encoders/encoders.22/feed_forward/w_2/Add_output_0 /encoder/encoders/encoders.22/Add_output_0_splitncnn_0 /encoder/encoders/encoders.22/Add_1_output_0
Split                    splitncnn_95             1 2 /encoder/encoders/encoders.22/Add_1_output_0 /encoder/encoders/encoders.22/Add_1_output_0_splitncnn_0 /encoder/encoders/encoders.22/Add_1_output_0_splitncnn_1
LayerNorm                /encoder/encoders/encoders.23/norm1/Add_1 1 1 /encoder/encoders/encoders.22/Add_1_output_0_splitncnn_1 /encoder/encoders/encoders.23/norm1/Add_1_output_0 0=320 1=1.000000e-12
Split                    splitncnn_96             1 4 /encoder/encoders/encoders.23/norm1/Add_1_output_0 /encoder/encoders/encoders.23/norm1/Add_1_output_0_splitncnn_0 /encoder/encoders/encoders.23/norm1/Add_1_output_0_splitncnn_1 /encoder/encoders/encoders.23/norm1/Add_1_output_0_splitncnn_2 /encoder/encoders/encoders.23/norm1/Add_1_output_0_splitncnn_3
InnerProduct             /encoder/encoders/encoders.23/self_attn/linear_w/MatMul 1 1 /encoder/encoders/encoders.23/norm1/Add_1_output_0_splitncnn_3 /encoder/encoders/encoders.23/self_attn/linear_w/Add_output_0 0=320 1=1 2=102400
MultiHeadAttention       /encoder/encoders/encoders.23/self_attn/linear_out/Add 3 1 /encoder/encoders/encoders.23/norm1/Add_1_output_0_splitncnn_2 /encoder/encoders/encoders.23/norm1/Add_1_output_0_splitncnn_1 /encoder/encoders/encoders.23/norm1/Add_1_output_0_splitncnn_0 /encoder/encoders/encoders.23/self_attn/linear_out/Add_output_0 0=320 1=4 2=102400 3=320 4=320
BinaryOp                 /encoder/encoders/encoders.23/self_attn/Mul_1 2 1 /encoder/encoders/encoders.23/self_attn/linear_w/Add_output_0 mask_3d_btd_splitncnn_31 /encoder/encoders/encoders.23/self_attn/Mul_1_output_0 0=2
Split                    splitncnn_97             1 2 /encoder/encoders/encoders.23/self_attn/Mul_1_output_0 /encoder/encoders/encoders.23/self_attn/Mul_1_output_0_splitncnn_0 /encoder/encoders/encoders.23/self_attn/Mul_1_output_0_splitncnn_1
Permute                  /encoder/encoders/encoders.23/self_attn/Transpose_4 1 1 /encoder/encoders/encoders.23/self_attn/Mul_1_output_0_splitncnn_1 /encoder/encoders/encoders.23/self_attn/Transpose_4_output_0 0=1
ConvolutionDepthWise1D   /encoder/encoders/encoders.23/self_attn/fsmn_block/Conv 1 1 /encoder/encoders/encoders.23/self_attn/Transpose_4_output_0 /encoder/encoders/encoders.23/self_attn/fsmn_block/Conv_output_0 0=320 1=11 4=5 6=3520 7=320
Permute                  /encoder/encoders/encoders.23/self_attn/Transpose_5 1 1 /encoder/encoders/encoders.23/self_attn/fsmn_block/Conv_output_0 /encoder/encoders/encoders.23/self_attn/Transpose_5_output_0 0=1
BinaryOp                 /encoder/encoders/encoders.23/self_attn/Add 2 1 /encoder/encoders/encoders.23/self_attn/Transpose_5_output_0 /encoder/encoders/encoders.23/self_attn/Mul_1_output_0_splitncnn_0 /encoder/encoders/encoders.23/self_attn/Add_output_0
BinaryOp                 /encoder/encoders/encoders.23/self_attn/Mul_2 2 1 /encoder/encoders/encoders.23/self_attn/Add_output_0 mask_3d_btd_splitncnn_30 /encoder/encoders/encoders.23/self_attn/Mul_2_output_0 0=2
BinaryOp                 /encoder/encoders/encoders.23/self_attn/Add_1 2 1 /encoder/encoders/encoders.23/self_attn/linear_out/Add_output_0 /encoder/encoders/encoders.23/self_attn/Mul_2_output_0 /encoder/encoders/encoders.23/self_attn/Add_1_output_0
BinaryOp                 /encoder/encoders/encoders.23/Add 2 1 /encoder/encoders/encoders.23/self_attn/Add_1_output_0 /encoder/encoders/encoders.22/Add_1_output_0_splitncnn_0 /encoder/encoders/encoders.23/Add_output_0
Split                    splitncnn_98             1 2 /encoder/encoders/encoders.23/Add_output_0 /encoder/encoders/encoders.23/Add_output_0_splitncnn_0 /encoder/encoders/encoders.23/Add_output_0_splitncnn_1
LayerNorm                /encoder/encoders/encoders.23/norm2/Add_1 1 1 /encoder/encoders/encoders.23/Add_output_0_splitncnn_1 /encoder/encoders/encoders.23/norm2/Add_1_output_0 0=320 1=1.000000e-12
InnerProduct             /encoder/encoders/encoders.23/feed_forward/w_1/MatMul 1 1 /encoder/encoders/encoders.23/norm2/Add_1_output_0 /encoder/encoders/encoders.23/feed_forward/activation/Relu_output_0 0=1280 1=1 2=409600 9=1
InnerProduct             /encoder/encoders/encoders.23/feed_forward/w_2/MatMul 1 1 /encoder/encoders/encoders.23/feed_forward/activation/Relu_output_0 /encoder/encoders/encoders.23/feed_forward/w_2/Add_output_0 0=320 1=1 2=409600
BinaryOp                 /encoder/encoders/encoders.23/Add_1 2 1 /encoder/encoders/encoders.23/feed_forward/w_2/Add_output_0 /encoder/encoders/encoders.23/Add_output_0_splitncnn_0 /encoder/encoders/encoders.23/Add_1_output_0
Split                    splitncnn_99             1 2 /encoder/encoders/encoders.23/Add_1_output_0 /encoder/encoders/encoders.23/Add_1_output_0_splitncnn_0 /encoder/encoders/encoders.23/Add_1_output_0_splitncnn_1
LayerNorm                /encoder/encoders/encoders.24/norm1/Add_1 1 1 /encoder/encoders/encoders.23/Add_1_output_0_splitncnn_1 /encoder/encoders/encoders.24/norm1/Add_1_output_0 0=320 1=1.000000e-12
Split                    splitncnn_100            1 4 /encoder/encoders/encoders.24/norm1/Add_1_output_0 /encoder/encoders/encoders.24/norm1/Add_1_output_0_splitncnn_0 /encoder/encoders/encoders.24/norm1/Add_1_output_0_splitncnn_1 /encoder/encoders/encoders.24/norm1/Add_1_output_0_splitncnn_2 /encoder/encoders/encoders.24/norm1/Add_1_output_0_splitncnn_3
InnerProduct             /encoder/encoders/encoders.24/self_attn/linear_w/MatMul 1 1 /encoder/encoders/encoders.24/norm1/Add_1_output_0_splitncnn_3 /encoder/encoders/encoders.24/self_attn/linear_w/Add_output_0 0=320 1=1 2=102400
MultiHeadAttention       /encoder/encoders/encoders.24/self_attn/linear_out/Add 3 1 /encoder/encoders/encoders.24/norm1/Add_1_output_0_splitncnn_2 /encoder/encoders/encoders.24/norm1/Add_1_output_0_splitncnn_1 /encoder/encoders/encoders.24/norm1/Add_1_output_0_splitncnn_0 /encoder/encoders/encoders.24/self_attn/linear_out/Add_output_0 0=320 1=4 2=102400 3=320 4=320
BinaryOp                 /encoder/encoders/encoders.24/self_attn/Mul_1 2 1 /encoder/encoders/encoders.24/self_attn/linear_w/Add_output_0 mask_3d_btd_splitncnn_29 /encoder/encoders/encoders.24/self_attn/Mul_1_output_0 0=2
Split                    splitncnn_101            1 2 /encoder/encoders/encoders.24/self_attn/Mul_1_output_0 /encoder/encoders/encoders.24/self_attn/Mul_1_output_0_splitncnn_0 /encoder/encoders/encoders.24/self_attn/Mul_1_output_0_splitncnn_1
Permute                  /encoder/encoders/encoders.24/self_attn/Transpose_4 1 1 /encoder/encoders/encoders.24/self_attn/Mul_1_output_0_splitncnn_1 /encoder/encoders/encoders.24/self_attn/Transpose_4_output_0 0=1
ConvolutionDepthWise1D   /encoder/encoders/encoders.24/self_attn/fsmn_block/Conv 1 1 /encoder/encoders/encoders.24/self_attn/Transpose_4_output_0 /encoder/encoders/encoders.24/self_attn/fsmn_block/Conv_output_0 0=320 1=11 4=5 6=3520 7=320
Permute                  /encoder/encoders/encoders.24/self_attn/Transpose_5 1 1 /encoder/encoders/encoders.24/self_attn/fsmn_block/Conv_output_0 /encoder/encoders/encoders.24/self_attn/Transpose_5_output_0 0=1
BinaryOp                 /encoder/encoders/encoders.24/self_attn/Add 2 1 /encoder/encoders/encoders.24/self_attn/Transpose_5_output_0 /encoder/encoders/encoders.24/self_attn/Mul_1_output_0_splitncnn_0 /encoder/encoders/encoders.24/self_attn/Add_output_0
BinaryOp                 /encoder/encoders/encoders.24/self_attn/Mul_2 2 1 /encoder/encoders/encoders.24/self_attn/Add_output_0 mask_3d_btd_splitncnn_28 /encoder/encoders/encoders.24/self_attn/Mul_2_output_0 0=2
BinaryOp                 /encoder/encoders/encoders.24/self_attn/Add_1 2 1 /encoder/encoders/encoders.24/self_attn/linear_out/Add_output_0 /encoder/encoders/encoders.24/self_attn/Mul_2_output_0 /encoder/encoders/encoders.24/self_attn/Add_1_output_0
BinaryOp                 /encoder/encoders/encoders.24/Add 2 1 /encoder/encoders/encoders.24/self_attn/Add_1_output_0 /encoder/encoders/encoders.23/Add_1_output_0_splitncnn_0 /encoder/encoders/encoders.24/Add_output_0
Split                    splitncnn_102            1 2 /encoder/encoders/encoders.24/Add_output_0 /encoder/encoders/encoders.24/Add_output_0_splitncnn_0 /encoder/encoders/encoders.24/Add_output_0_splitncnn_1
LayerNorm                /encoder/encoders/encoders.24/norm2/Add_1 1 1 /encoder/encoders/encoders.24/Add_output_0_splitncnn_1 /encoder/encoders/encoders.24/norm2/Add_1_output_0 0=320 1=1.000000e-12
InnerProduct             /encoder/encoders/encoders.24/feed_forward/w_1/MatMul 1 1 /encoder/encoders/encoders.24/norm2/Add_1_output_0 /encoder/encoders/encoders.24/feed_forward/activation/Relu_output_0 0=1280 1=1 2=409600 9=1
InnerProduct             /encoder/encoders/encoders.24/feed_forward/w_2/MatMul 1 1 /encoder/encoders/encoders.24/feed_forward/activation/Relu_output_0 /encoder/encoders/encoders.24/feed_forward/w_2/Add_output_0 0=320 1=1 2=409600
BinaryOp                 /encoder/encoders/encoders.24/Add_1 2 1 /encoder/encoders/encoders.24/feed_forward/w_2/Add_output_0 /encoder/encoders/encoders.24/Add_output_0_splitncnn_0 /encoder/encoders/encoders.24/Add_1_output_0
Split                    splitncnn_103            1 2 /encoder/encoders/encoders.24/Add_1_output_0 /encoder/encoders/encoders.24/Add_1_output_0_splitncnn_0 /encoder/encoders/encoders.24/Add_1_output_0_splitncnn_1
LayerNorm                /encoder/encoders/encoders.25/norm1/Add_1 1 1 /encoder/encoders/encoders.24/Add_1_output_0_splitncnn_1 /encoder/encoders/encoders.25/norm1/Add_1_output_0 0=320 1=1.000000e-12
Split                    splitncnn_104            1 4 /encoder/encoders/encoders.25/norm1/Add_1_output_0 /encoder/encoders/encoders.25/norm1/Add_1_output_0_splitncnn_0 /encoder/encoders/encoders.25/norm1/Add_1_output_0_splitncnn_1 /encoder/encoders/encoders.25/norm1/Add_1_output_0_splitncnn_2 /encoder/encoders/encoders.25/norm1/Add_1_output_0_splitncnn_3
InnerProduct             /encoder/encoders/encoders.25/self_attn/linear_w/MatMul 1 1 /encoder/encoders/encoders.25/norm1/Add_1_output_0_splitncnn_3 /encoder/encoders/encoders.25/self_attn/linear_w/Add_output_0 0=320 1=1 2=102400
MultiHeadAttention       /encoder/encoders/encoders.25/self_attn/linear_out/Add 3 1 /encoder/encoders/encoders.25/norm1/Add_1_output_0_splitncnn_2 /encoder/encoders/encoders.25/norm1/Add_1_output_0_splitncnn_1 /encoder/encoders/encoders.25/norm1/Add_1_output_0_splitncnn_0 /encoder/encoders/encoders.25/self_attn/linear_out/Add_output_0 0=320 1=4 2=102400 3=320 4=320
BinaryOp                 /encoder/encoders/encoders.25/self_attn/Mul_1 2 1 /encoder/encoders/encoders.25/self_attn/linear_w/Add_output_0 mask_3d_btd_splitncnn_27 /encoder/encoders/encoders.25/self_attn/Mul_1_output_0 0=2
Split                    splitncnn_105            1 2 /encoder/encoders/encoders.25/self_attn/Mul_1_output_0 /encoder/encoders/encoders.25/self_attn/Mul_1_output_0_splitncnn_0 /encoder/encoders/encoders.25/self_attn/Mul_1_output_0_splitncnn_1
Permute                  /encoder/encoders/encoders.25/self_attn/Transpose_4 1 1 /encoder/encoders/encoders.25/self_attn/Mul_1_output_0_splitncnn_1 /encoder/encoders/encoders.25/self_attn/Transpose_4_output_0 0=1
ConvolutionDepthWise1D   /encoder/encoders/encoders.25/self_attn/fsmn_block/Conv 1 1 /encoder/encoders/encoders.25/self_attn/Transpose_4_output_0 /encoder/encoders/encoders.25/self_attn/fsmn_block/Conv_output_0 0=320 1=11 4=5 6=3520 7=320
Permute                  /encoder/encoders/encoders.25/self_attn/Transpose_5 1 1 /encoder/encoders/encoders.25/self_attn/fsmn_block/Conv_output_0 /encoder/encoders/encoders.25/self_attn/Transpose_5_output_0 0=1
BinaryOp                 /encoder/encoders/encoders.25/self_attn/Add 2 1 /encoder/encoders/encoders.25/self_attn/Transpose_5_output_0 /encoder/encoders/encoders.25/self_attn/Mul_1_output_0_splitncnn_0 /encoder/encoders/encoders.25/self_attn/Add_output_0
BinaryOp                 /encoder/encoders/encoders.25/self_attn/Mul_2 2 1 /encoder/encoders/encoders.25/self_attn/Add_output_0 mask_3d_btd_splitncnn_26 /encoder/encoders/encoders.25/self_attn/Mul_2_output_0 0=2
BinaryOp                 /encoder/encoders/encoders.25/self_attn/Add_1 2 1 /encoder/encoders/encoders.25/self_attn/linear_out/Add_output_0 /encoder/encoders/encoders.25/self_attn/Mul_2_output_0 /encoder/encoders/encoders.25/self_attn/Add_1_output_0
BinaryOp                 /encoder/encoders/encoders.25/Add 2 1 /encoder/encoders/encoders.25/self_attn/Add_1_output_0 /encoder/encoders/encoders.24/Add_1_output_0_splitncnn_0 /encoder/encoders/encoders.25/Add_output_0
Split                    splitncnn_106            1 2 /encoder/encoders/encoders.25/Add_output_0 /encoder/encoders/encoders.25/Add_output_0_splitncnn_0 /encoder/encoders/encoders.25/Add_output_0_splitncnn_1
LayerNorm                /encoder/encoders/encoders.25/norm2/Add_1 1 1 /encoder/encoders/encoders.25/Add_output_0_splitncnn_1 /encoder/encoders/encoders.25/norm2/Add_1_output_0 0=320 1=1.000000e-12
InnerProduct             /encoder/encoders/encoders.25/feed_forward/w_1/MatMul 1 1 /encoder/encoders/encoders.25/norm2/Add_1_output_0 /encoder/encoders/encoders.25/feed_forward/activation/Relu_output_0 0=1280 1=1 2=409600 9=1
InnerProduct             /encoder/encoders/encoders.25/feed_forward/w_2/MatMul 1 1 /encoder/encoders/encoders.25/feed_forward/activation/Relu_output_0 /encoder/encoders/encoders.25/feed_forward/w_2/Add_output_0 0=320 1=1 2=409600
BinaryOp                 /encoder/encoders/encoders.25/Add_1 2 1 /encoder/encoders/encoders.25/feed_forward/w_2/Add_output_0 /encoder/encoders/encoders.25/Add_output_0_splitncnn_0 /encoder/encoders/encoders.25/Add_1_output_0
Split                    splitncnn_107            1 2 /encoder/encoders/encoders.25/Add_1_output_0 /encoder/encoders/encoders.25/Add_1_output_0_splitncnn_0 /encoder/encoders/encoders.25/Add_1_output_0_splitncnn_1
LayerNorm                /encoder/encoders/encoders.26/norm1/Add_1 1 1 /encoder/encoders/encoders.25/Add_1_output_0_splitncnn_1 /encoder/encoders/encoders.26/norm1/Add_1_output_0 0=320 1=1.000000e-12
Split                    splitncnn_108            1 4 /encoder/encoders/encoders.26/norm1/Add_1_output_0 /encoder/encoders/encoders.26/norm1/Add_1_output_0_splitncnn_0 /encoder/encoders/encoders.26/norm1/Add_1_output_0_splitncnn_1 /encoder/encoders/encoders.26/norm1/Add_1_output_0_splitncnn_2 /encoder/encoders/encoders.26/norm1/Add_1_output_0_splitncnn_3
InnerProduct             /encoder/encoders/encoders.26/self_attn/linear_w/MatMul 1 1 /encoder/encoders/encoders.26/norm1/Add_1_output_0_splitncnn_3 /encoder/encoders/encoders.26/self_attn/linear_w/Add_output_0 0=320 1=1 2=102400
MultiHeadAttention       /encoder/encoders/encoders.26/self_attn/linear_out/Add 3 1 /encoder/encoders/encoders.26/norm1/Add_1_output_0_splitncnn_2 /encoder/encoders/encoders.26/norm1/Add_1_output_0_splitncnn_1 /encoder/encoders/encoders.26/norm1/Add_1_output_0_splitncnn_0 /encoder/encoders/encoders.26/self_attn/linear_out/Add_output_0 0=320 1=4 2=102400 3=320 4=320
BinaryOp                 /encoder/encoders/encoders.26/self_attn/Mul_1 2 1 /encoder/encoders/encoders.26/self_attn/linear_w/Add_output_0 mask_3d_btd_splitncnn_25 /encoder/encoders/encoders.26/self_attn/Mul_1_output_0 0=2
Split                    splitncnn_109            1 2 /encoder/encoders/encoders.26/self_attn/Mul_1_output_0 /encoder/encoders/encoders.26/self_attn/Mul_1_output_0_splitncnn_0 /encoder/encoders/encoders.26/self_attn/Mul_1_output_0_splitncnn_1
Permute                  /encoder/encoders/encoders.26/self_attn/Transpose_4 1 1 /encoder/encoders/encoders.26/self_attn/Mul_1_output_0_splitncnn_1 /encoder/encoders/encoders.26/self_attn/Transpose_4_output_0 0=1
ConvolutionDepthWise1D   /encoder/encoders/encoders.26/self_attn/fsmn_block/Conv 1 1 /encoder/encoders/encoders.26/self_attn/Transpose_4_output_0 /encoder/encoders/encoders.26/self_attn/fsmn_block/Conv_output_0 0=320 1=11 4=5 6=3520 7=320
Permute                  /encoder/encoders/encoders.26/self_attn/Transpose_5 1 1 /encoder/encoders/encoders.26/self_attn/fsmn_block/Conv_output_0 /encoder/encoders/encoders.26/self_attn/Transpose_5_output_0 0=1
BinaryOp                 /encoder/encoders/encoders.26/self_attn/Add 2 1 /encoder/encoders/encoders.26/self_attn/Transpose_5_output_0 /encoder/encoders/encoders.26/self_attn/Mul_1_output_0_splitncnn_0 /encoder/encoders/encoders.26/self_attn/Add_output_0
BinaryOp                 /encoder/encoders/encoders.26/self_attn/Mul_2 2 1 /encoder/encoders/encoders.26/self_attn/Add_output_0 mask_3d_btd_splitncnn_24 /encoder/encoders/encoders.26/self_attn/Mul_2_output_0 0=2
BinaryOp                 /encoder/encoders/encoders.26/self_attn/Add_1 2 1 /encoder/encoders/encoders.26/self_attn/linear_out/Add_output_0 /encoder/encoders/encoders.26/self_attn/Mul_2_output_0 /encoder/encoders/encoders.26/self_attn/Add_1_output_0
BinaryOp                 /encoder/encoders/encoders.26/Add 2 1 /encoder/encoders/encoders.26/self_attn/Add_1_output_0 /encoder/encoders/encoders.25/Add_1_output_0_splitncnn_0 /encoder/encoders/encoders.26/Add_output_0
Split                    splitncnn_110            1 2 /encoder/encoders/encoders.26/Add_output_0 /encoder/encoders/encoders.26/Add_output_0_splitncnn_0 /encoder/encoders/encoders.26/Add_output_0_splitncnn_1
LayerNorm                /encoder/encoders/encoders.26/norm2/Add_1 1 1 /encoder/encoders/encoders.26/Add_output_0_splitncnn_1 /encoder/encoders/encoders.26/norm2/Add_1_output_0 0=320 1=1.000000e-12
InnerProduct             /encoder/encoders/encoders.26/feed_forward/w_1/MatMul 1 1 /encoder/encoders/encoders.26/norm2/Add_1_output_0 /encoder/encoders/encoders.26/feed_forward/activation/Relu_output_0 0=1280 1=1 2=409600 9=1
InnerProduct             /encoder/encoders/encoders.26/feed_forward/w_2/MatMul 1 1 /encoder/encoders/encoders.26/feed_forward/activation/Relu_output_0 /encoder/encoders/encoders.26/feed_forward/w_2/Add_output_0 0=320 1=1 2=409600
BinaryOp                 /encoder/encoders/encoders.26/Add_1 2 1 /encoder/encoders/encoders.26/feed_forward/w_2/Add_output_0 /encoder/encoders/encoders.26/Add_output_0_splitncnn_0 /encoder/encoders/encoders.26/Add_1_output_0
Split                    splitncnn_111            1 2 /encoder/encoders/encoders.26/Add_1_output_0 /encoder/encoders/encoders.26/Add_1_output_0_splitncnn_0 /encoder/encoders/encoders.26/Add_1_output_0_splitncnn_1
LayerNorm                /encoder/encoders/encoders.27/norm1/Add_1 1 1 /encoder/encoders/encoders.26/Add_1_output_0_splitncnn_1 /encoder/encoders/encoders.27/norm1/Add_1_output_0 0=320 1=1.000000e-12
Split                    splitncnn_112            1 4 /encoder/encoders/encoders.27/norm1/Add_1_output_0 /encoder/encoders/encoders.27/norm1/Add_1_output_0_splitncnn_0 /encoder/encoders/encoders.27/norm1/Add_1_output_0_splitncnn_1 /encoder/encoders/encoders.27/norm1/Add_1_output_0_splitncnn_2 /encoder/encoders/encoders.27/norm1/Add_1_output_0_splitncnn_3
InnerProduct             /encoder/encoders/encoders.27/self_attn/linear_w/MatMul 1 1 /encoder/encoders/encoders.27/norm1/Add_1_output_0_splitncnn_3 /encoder/encoders/encoders.27/self_attn/linear_w/Add_output_0 0=320 1=1 2=102400
MultiHeadAttention       /encoder/encoders/encoders.27/self_attn/linear_out/Add 3 1 /encoder/encoders/encoders.27/norm1/Add_1_output_0_splitncnn_2 /encoder/encoders/encoders.27/norm1/Add_1_output_0_splitncnn_1 /encoder/encoders/encoders.27/norm1/Add_1_output_0_splitncnn_0 /encoder/encoders/encoders.27/self_attn/linear_out/Add_output_0 0=320 1=4 2=102400 3=320 4=320
BinaryOp                 /encoder/encoders/encoders.27/self_attn/Mul_1 2 1 /encoder/encoders/encoders.27/self_attn/linear_w/Add_output_0 mask_3d_btd_splitncnn_23 /encoder/encoders/encoders.27/self_attn/Mul_1_output_0 0=2
Split                    splitncnn_113            1 2 /encoder/encoders/encoders.27/self_attn/Mul_1_output_0 /encoder/encoders/encoders.27/self_attn/Mul_1_output_0_splitncnn_0 /encoder/encoders/encoders.27/self_attn/Mul_1_output_0_splitncnn_1
Permute                  /encoder/encoders/encoders.27/self_attn/Transpose_4 1 1 /encoder/encoders/encoders.27/self_attn/Mul_1_output_0_splitncnn_1 /encoder/encoders/encoders.27/self_attn/Transpose_4_output_0 0=1
ConvolutionDepthWise1D   /encoder/encoders/encoders.27/self_attn/fsmn_block/Conv 1 1 /encoder/encoders/encoders.27/self_attn/Transpose_4_output_0 /encoder/encoders/encoders.27/self_attn/fsmn_block/Conv_output_0 0=320 1=11 4=5 6=3520 7=320
Permute                  /encoder/encoders/encoders.27/self_attn/Transpose_5 1 1 /encoder/encoders/encoders.27/self_attn/fsmn_block/Conv_output_0 /encoder/encoders/encoders.27/self_attn/Transpose_5_output_0 0=1
BinaryOp                 /encoder/encoders/encoders.27/self_attn/Add 2 1 /encoder/encoders/encoders.27/self_attn/Transpose_5_output_0 /encoder/encoders/encoders.27/self_attn/Mul_1_output_0_splitncnn_0 /encoder/encoders/encoders.27/self_attn/Add_output_0
BinaryOp                 /encoder/encoders/encoders.27/self_attn/Mul_2 2 1 /encoder/encoders/encoders.27/self_attn/Add_output_0 mask_3d_btd_splitncnn_22 /encoder/encoders/encoders.27/self_attn/Mul_2_output_0 0=2
BinaryOp                 /encoder/encoders/encoders.27/self_attn/Add_1 2 1 /encoder/encoders/encoders.27/self_attn/linear_out/Add_output_0 /encoder/encoders/encoders.27/self_attn/Mul_2_output_0 /encoder/encoders/encoders.27/self_attn/Add_1_output_0
BinaryOp                 /encoder/encoders/encoders.27/Add 2 1 /encoder/encoders/encoders.27/self_attn/Add_1_output_0 /encoder/encoders/encoders.26/Add_1_output_0_splitncnn_0 /encoder/encoders/encoders.27/Add_output_0
Split                    splitncnn_114            1 2 /encoder/encoders/encoders.27/Add_output_0 /encoder/encoders/encoders.27/Add_output_0_splitncnn_0 /encoder/encoders/encoders.27/Add_output_0_splitncnn_1
LayerNorm                /encoder/encoders/encoders.27/norm2/Add_1 1 1 /encoder/encoders/encoders.27/Add_output_0_splitncnn_1 /encoder/encoders/encoders.27/norm2/Add_1_output_0 0=320 1=1.000000e-12
InnerProduct             /encoder/encoders/encoders.27/feed_forward/w_1/MatMul 1 1 /encoder/encoders/encoders.27/norm2/Add_1_output_0 /encoder/encoders/encoders.27/feed_forward/activation/Relu_output_0 0=1280 1=1 2=409600 9=1
InnerProduct             /encoder/encoders/encoders.27/feed_forward/w_2/MatMul 1 1 /encoder/encoders/encoders.27/feed_forward/activation/Relu_output_0 /encoder/encoders/encoders.27/feed_forward/w_2/Add_output_0 0=320 1=1 2=409600
BinaryOp                 /encoder/encoders/encoders.27/Add_1 2 1 /encoder/encoders/encoders.27/feed_forward/w_2/Add_output_0 /encoder/encoders/encoders.27/Add_output_0_splitncnn_0 /encoder/encoders/encoders.27/Add_1_output_0
Split                    splitncnn_115            1 2 /encoder/encoders/encoders.27/Add_1_output_0 /encoder/encoders/encoders.27/Add_1_output_0_splitncnn_0 /encoder/encoders/encoders.27/Add_1_output_0_splitncnn_1
LayerNorm                /encoder/encoders/encoders.28/norm1/Add_1 1 1 /encoder/encoders/encoders.27/Add_1_output_0_splitncnn_1 /encoder/encoders/encoders.28/norm1/Add_1_output_0 0=320 1=1.000000e-12
Split                    splitncnn_116            1 4 /encoder/encoders/encoders.28/norm1/Add_1_output_0 /encoder/encoders/encoders.28/norm1/Add_1_output_0_splitncnn_0 /encoder/encoders/encoders.28/norm1/Add_1_output_0_splitncnn_1 /encoder/encoders/encoders.28/norm1/Add_1_output_0_splitncnn_2 /encoder/encoders/encoders.28/norm1/Add_1_output_0_splitncnn_3
InnerProduct             /encoder/encoders/encoders.28/self_attn/linear_w/MatMul 1 1 /encoder/encoders/encoders.28/norm1/Add_1_output_0_splitncnn_3 /encoder/encoders/encoders.28/self_attn/linear_w/Add_output_0 0=320 1=1 2=102400
MultiHeadAttention       /encoder/encoders/encoders.28/self_attn/linear_out/Add 3 1 /encoder/encoders/encoders.28/norm1/Add_1_output_0_splitncnn_2 /encoder/encoders/encoders.28/norm1/Add_1_output_0_splitncnn_1 /encoder/encoders/encoders.28/norm1/Add_1_output_0_splitncnn_0 /encoder/encoders/encoders.28/self_attn/linear_out/Add_output_0 0=320 1=4 2=102400 3=320 4=320
BinaryOp                 /encoder/encoders/encoders.28/self_attn/Mul_1 2 1 /encoder/encoders/encoders.28/self_attn/linear_w/Add_output_0 mask_3d_btd_splitncnn_21 /encoder/encoders/encoders.28/self_attn/Mul_1_output_0 0=2
Split                    splitncnn_117            1 2 /encoder/encoders/encoders.28/self_attn/Mul_1_output_0 /encoder/encoders/encoders.28/self_attn/Mul_1_output_0_splitncnn_0 /encoder/encoders/encoders.28/self_attn/Mul_1_output_0_splitncnn_1
Permute                  /encoder/encoders/encoders.28/self_attn/Transpose_4 1 1 /encoder/encoders/encoders.28/self_attn/Mul_1_output_0_splitncnn_1 /encoder/encoders/encoders.28/self_attn/Transpose_4_output_0 0=1
ConvolutionDepthWise1D   /encoder/encoders/encoders.28/self_attn/fsmn_block/Conv 1 1 /encoder/encoders/encoders.28/self_attn/Transpose_4_output_0 /encoder/encoders/encoders.28/self_attn/fsmn_block/Conv_output_0 0=320 1=11 4=5 6=3520 7=320
Permute                  /encoder/encoders/encoders.28/self_attn/Transpose_5 1 1 /encoder/encoders/encoders.28/self_attn/fsmn_block/Conv_output_0 /encoder/encoders/encoders.28/self_attn/Transpose_5_output_0 0=1
BinaryOp                 /encoder/encoders/encoders.28/self_attn/Add 2 1 /encoder/encoders/encoders.28/self_attn/Transpose_5_output_0 /encoder/encoders/encoders.28/self_attn/Mul_1_output_0_splitncnn_0 /encoder/encoders/encoders.28/self_attn/Add_output_0
BinaryOp                 /encoder/encoders/encoders.28/self_attn/Mul_2 2 1 /encoder/encoders/encoders.28/self_attn/Add_output_0 mask_3d_btd_splitncnn_20 /encoder/encoders/encoders.28/self_attn/Mul_2_output_0 0=2
BinaryOp                 /encoder/encoders/encoders.28/self_attn/Add_1 2 1 /encoder/encoders/encoders.28/self_attn/linear_out/Add_output_0 /encoder/encoders/encoders.28/self_attn/Mul_2_output_0 /encoder/encoders/encoders.28/self_attn/Add_1_output_0
BinaryOp                 /encoder/encoders/encoders.28/Add 2 1 /encoder/encoders/encoders.28/self_attn/Add_1_output_0 /encoder/encoders/encoders.27/Add_1_output_0_splitncnn_0 /encoder/encoders/encoders.28/Add_output_0
Split                    splitncnn_118            1 2 /encoder/encoders/encoders.28/Add_output_0 /encoder/encoders/encoders.28/Add_output_0_splitncnn_0 /encoder/encoders/encoders.28/Add_output_0_splitncnn_1
LayerNorm                /encoder/encoders/encoders.28/norm2/Add_1 1 1 /encoder/encoders/encoders.28/Add_output_0_splitncnn_1 /encoder/encoders/encoders.28/norm2/Add_1_output_0 0=320 1=1.000000e-12
InnerProduct             /encoder/encoders/encoders.28/feed_forward/w_1/MatMul 1 1 /encoder/encoders/encoders.28/norm2/Add_1_output_0 /encoder/encoders/encoders.28/feed_forward/activation/Relu_output_0 0=1280 1=1 2=409600 9=1
InnerProduct             /encoder/encoders/encoders.28/feed_forward/w_2/MatMul 1 1 /encoder/encoders/encoders.28/feed_forward/activation/Relu_output_0 /encoder/encoders/encoders.28/feed_forward/w_2/Add_output_0 0=320 1=1 2=409600
BinaryOp                 /encoder/encoders/encoders.28/Add_1 2 1 /encoder/encoders/encoders.28/feed_forward/w_2/Add_output_0 /encoder/encoders/encoders.28/Add_output_0_splitncnn_0 /encoder/encoders/encoders.28/Add_1_output_0
Split                    splitncnn_119            1 2 /encoder/encoders/encoders.28/Add_1_output_0 /encoder/encoders/encoders.28/Add_1_output_0_splitncnn_0 /encoder/encoders/encoders.28/Add_1_output_0_splitncnn_1
LayerNorm                /encoder/encoders/encoders.29/norm1/Add_1 1 1 /encoder/encoders/encoders.28/Add_1_output_0_splitncnn_1 /encoder/encoders/encoders.29/norm1/Add_1_output_0 0=320 1=1.000000e-12
Split                    splitncnn_120            1 4 /encoder/encoders/encoders.29/norm1/Add_1_output_0 /encoder/encoders/encoders.29/norm1/Add_1_output_0_splitncnn_0 /encoder/encoders/encoders.29/norm1/Add_1_output_0_splitncnn_1 /encoder/encoders/encoders.29/norm1/Add_1_output_0_splitncnn_2 /encoder/encoders/encoders.29/norm1/Add_1_output_0_splitncnn_3
InnerProduct             /encoder/encoders/encoders.29/self_attn/linear_w/MatMul 1 1 /encoder/encoders/encoders.29/norm1/Add_1_output_0_splitncnn_3 /encoder/encoders/encoders.29/self_attn/linear_w/Add_output_0 0=320 1=1 2=102400
MultiHeadAttention       /encoder/encoders/encoders.29/self_attn/linear_out/Add 3 1 /encoder/encoders/encoders.29/norm1/Add_1_output_0_splitncnn_2 /encoder/encoders/encoders.29/norm1/Add_1_output_0_splitncnn_1 /encoder/encoders/encoders.29/norm1/Add_1_output_0_splitncnn_0 /encoder/encoders/encoders.29/self_attn/linear_out/Add_output_0 0=320 1=4 2=102400 3=320 4=320
BinaryOp                 /encoder/encoders/encoders.29/self_attn/Mul_1 2 1 /encoder/encoders/encoders.29/self_attn/linear_w/Add_output_0 mask_3d_btd_splitncnn_19 /encoder/encoders/encoders.29/self_attn/Mul_1_output_0 0=2
Split                    splitncnn_121            1 2 /encoder/encoders/encoders.29/self_attn/Mul_1_output_0 /encoder/encoders/encoders.29/self_attn/Mul_1_output_0_splitncnn_0 /encoder/encoders/encoders.29/self_attn/Mul_1_output_0_splitncnn_1
Permute                  /encoder/encoders/encoders.29/self_attn/Transpose_4 1 1 /encoder/encoders/encoders.29/self_attn/Mul_1_output_0_splitncnn_1 /encoder/encoders/encoders.29/self_attn/Transpose_4_output_0 0=1
ConvolutionDepthWise1D   /encoder/encoders/encoders.29/self_attn/fsmn_block/Conv 1 1 /encoder/encoders/encoders.29/self_attn/Transpose_4_output_0 /encoder/encoders/encoders.29/self_attn/fsmn_block/Conv_output_0 0=320 1=11 4=5 6=3520 7=320
Permute                  /encoder/encoders/encoders.29/self_attn/Transpose_5 1 1 /encoder/encoders/encoders.29/self_attn/fsmn_block/Conv_output_0 /encoder/encoders/encoders.29/self_attn/Transpose_5_output_0 0=1
BinaryOp                 /encoder/encoders/encoders.29/self_attn/Add 2 1 /encoder/encoders/encoders.29/self_attn/Transpose_5_output_0 /encoder/encoders/encoders.29/self_attn/Mul_1_output_0_splitncnn_0 /encoder/encoders/encoders.29/self_attn/Add_output_0
BinaryOp                 /encoder/encoders/encoders.29/self_attn/Mul_2 2 1 /encoder/encoders/encoders.29/self_attn/Add_output_0 mask_3d_btd_splitncnn_18 /encoder/encoders/encoders.29/self_attn/Mul_2_output_0 0=2
BinaryOp                 /encoder/encoders/encoders.29/self_attn/Add_1 2 1 /encoder/encoders/encoders.29/self_attn/linear_out/Add_output_0 /encoder/encoders/encoders.29/self_attn/Mul_2_output_0 /encoder/encoders/encoders.29/self_attn/Add_1_output_0
BinaryOp                 /encoder/encoders/encoders.29/Add 2 1 /encoder/encoders/encoders.29/self_attn/Add_1_output_0 /encoder/encoders/encoders.28/Add_1_output_0_splitncnn_0 /encoder/encoders/encoders.29/Add_output_0
Split                    splitncnn_122            1 2 /encoder/encoders/encoders.29/Add_output_0 /encoder/encoders/encoders.29/Add_output_0_splitncnn_0 /encoder/encoders/encoders.29/Add_output_0_splitncnn_1
LayerNorm                /encoder/encoders/encoders.29/norm2/Add_1 1 1 /encoder/encoders/encoders.29/Add_output_0_splitncnn_1 /encoder/encoders/encoders.29/norm2/Add_1_output_0 0=320 1=1.000000e-12
InnerProduct             /encoder/encoders/encoders.29/feed_forward/w_1/MatMul 1 1 /encoder/encoders/encoders.29/norm2/Add_1_output_0 /encoder/encoders/encoders.29/feed_forward/activation/Relu_output_0 0=1280 1=1 2=409600 9=1
InnerProduct             /encoder/encoders/encoders.29/feed_forward/w_2/MatMul 1 1 /encoder/encoders/encoders.29/feed_forward/activation/Relu_output_0 /encoder/encoders/encoders.29/feed_forward/w_2/Add_output_0 0=320 1=1 2=409600
BinaryOp                 /encoder/encoders/encoders.29/Add_1 2 1 /encoder/encoders/encoders.29/feed_forward/w_2/Add_output_0 /encoder/encoders/encoders.29/Add_output_0_splitncnn_0 /encoder/encoders/encoders.29/Add_1_output_0
Split                    splitncnn_123            1 2 /encoder/encoders/encoders.29/Add_1_output_0 /encoder/encoders/encoders.29/Add_1_output_0_splitncnn_0 /encoder/encoders/encoders.29/Add_1_output_0_splitncnn_1
LayerNorm                /encoder/encoders/encoders.30/norm1/Add_1 1 1 /encoder/encoders/encoders.29/Add_1_output_0_splitncnn_1 /encoder/encoders/encoders.30/norm1/Add_1_output_0 0=320 1=1.000000e-12
Split                    splitncnn_124            1 4 /encoder/encoders/encoders.30/norm1/Add_1_output_0 /encoder/encoders/encoders.30/norm1/Add_1_output_0_splitncnn_0 /encoder/encoders/encoders.30/norm1/Add_1_output_0_splitncnn_1 /encoder/encoders/encoders.30/norm1/Add_1_output_0_splitncnn_2 /encoder/encoders/encoders.30/norm1/Add_1_output_0_splitncnn_3
InnerProduct             /encoder/encoders/encoders.30/self_attn/linear_w/MatMul 1 1 /encoder/encoders/encoders.30/norm1/Add_1_output_0_splitncnn_3 /encoder/encoders/encoders.30/self_attn/linear_w/Add_output_0 0=320 1=1 2=102400
MultiHeadAttention       /encoder/encoders/encoders.30/self_attn/linear_out/Add 3 1 /encoder/encoders/encoders.30/norm1/Add_1_output_0_splitncnn_2 /encoder/encoders/encoders.30/norm1/Add_1_output_0_splitncnn_1 /encoder/encoders/encoders.30/norm1/Add_1_output_0_splitncnn_0 /encoder/encoders/encoders.30/self_attn/linear_out/Add_output_0 0=320 1=4 2=102400 3=320 4=320
BinaryOp                 /encoder/encoders/encoders.30/self_attn/Mul_1 2 1 /encoder/encoders/encoders.30/self_attn/linear_w/Add_output_0 mask_3d_btd_splitncnn_17 /encoder/encoders/encoders.30/self_attn/Mul_1_output_0 0=2
Split                    splitncnn_125            1 2 /encoder/encoders/encoders.30/self_attn/Mul_1_output_0 /encoder/encoders/encoders.30/self_attn/Mul_1_output_0_splitncnn_0 /encoder/encoders/encoders.30/self_attn/Mul_1_output_0_splitncnn_1
Permute                  /encoder/encoders/encoders.30/self_attn/Transpose_4 1 1 /encoder/encoders/encoders.30/self_attn/Mul_1_output_0_splitncnn_1 /encoder/encoders/encoders.30/self_attn/Transpose_4_output_0 0=1
ConvolutionDepthWise1D   /encoder/encoders/encoders.30/self_attn/fsmn_block/Conv 1 1 /encoder/encoders/encoders.30/self_attn/Transpose_4_output_0 /encoder/encoders/encoders.30/self_attn/fsmn_block/Conv_output_0 0=320 1=11 4=5 6=3520 7=320
Permute                  /encoder/encoders/encoders.30/self_attn/Transpose_5 1 1 /encoder/encoders/encoders.30/self_attn/fsmn_block/Conv_output_0 /encoder/encoders/encoders.30/self_attn/Transpose_5_output_0 0=1
BinaryOp                 /encoder/encoders/encoders.30/self_attn/Add 2 1 /encoder/encoders/encoders.30/self_attn/Transpose_5_output_0 /encoder/encoders/encoders.30/self_attn/Mul_1_output_0_splitncnn_0 /encoder/encoders/encoders.30/self_attn/Add_output_0
BinaryOp                 /encoder/encoders/encoders.30/self_attn/Mul_2 2 1 /encoder/encoders/encoders.30/self_attn/Add_output_0 mask_3d_btd_splitncnn_16 /encoder/encoders/encoders.30/self_attn/Mul_2_output_0 0=2
BinaryOp                 /encoder/encoders/encoders.30/self_attn/Add_1 2 1 /encoder/encoders/encoders.30/self_attn/linear_out/Add_output_0 /encoder/encoders/encoders.30/self_attn/Mul_2_output_0 /encoder/encoders/encoders.30/self_attn/Add_1_output_0
BinaryOp                 /encoder/encoders/encoders.30/Add 2 1 /encoder/encoders/encoders.30/self_attn/Add_1_output_0 /encoder/encoders/encoders.29/Add_1_output_0_splitncnn_0 /encoder/encoders/encoders.30/Add_output_0
Split                    splitncnn_126            1 2 /encoder/encoders/encoders.30/Add_output_0 /encoder/encoders/encoders.30/Add_output_0_splitncnn_0 /encoder/encoders/encoders.30/Add_output_0_splitncnn_1
LayerNorm                /encoder/encoders/encoders.30/norm2/Add_1 1 1 /encoder/encoders/encoders.30/Add_output_0_splitncnn_1 /encoder/encoders/encoders.30/norm2/Add_1_output_0 0=320 1=1.000000e-12
InnerProduct             /encoder/encoders/encoders.30/feed_forward/w_1/MatMul 1 1 /encoder/encoders/encoders.30/norm2/Add_1_output_0 /encoder/encoders/encoders.30/feed_forward/activation/Relu_output_0 0=1280 1=1 2=409600 9=1
InnerProduct             /encoder/encoders/encoders.30/feed_forward/w_2/MatMul 1 1 /encoder/encoders/encoders.30/feed_forward/activation/Relu_output_0 /encoder/encoders/encoders.30/feed_forward/w_2/Add_output_0 0=320 1=1 2=409600
BinaryOp                 /encoder/encoders/encoders.30/Add_1 2 1 /encoder/encoders/encoders.30/feed_forward/w_2/Add_output_0 /encoder/encoders/encoders.30/Add_output_0_splitncnn_0 /encoder/encoders/encoders.30/Add_1_output_0
Split                    splitncnn_127            1 2 /encoder/encoders/encoders.30/Add_1_output_0 /encoder/encoders/encoders.30/Add_1_output_0_splitncnn_0 /encoder/encoders/encoders.30/Add_1_output_0_splitncnn_1
LayerNorm                /encoder/encoders/encoders.31/norm1/Add_1 1 1 /encoder/encoders/encoders.30/Add_1_output_0_splitncnn_1 /encoder/encoders/encoders.31/norm1/Add_1_output_0 0=320 1=1.000000e-12
Split                    splitncnn_128            1 4 /encoder/encoders/encoders.31/norm1/Add_1_output_0 /encoder/encoders/encoders.31/norm1/Add_1_output_0_splitncnn_0 /encoder/encoders/encoders.31/norm1/Add_1_output_0_splitncnn_1 /encoder/encoders/encoders.31/norm1/Add_1_output_0_splitncnn_2 /encoder/encoders/encoders.31/norm1/Add_1_output_0_splitncnn_3
InnerProduct             /encoder/encoders/encoders.31/self_attn/linear_w/MatMul 1 1 /encoder/encoders/encoders.31/norm1/Add_1_output_0_splitncnn_3 /encoder/encoders/encoders.31/self_attn/linear_w/Add_output_0 0=320 1=1 2=102400
MultiHeadAttention       /encoder/encoders/encoders.31/self_attn/linear_out/Add 3 1 /encoder/encoders/encoders.31/norm1/Add_1_output_0_splitncnn_2 /encoder/encoders/encoders.31/norm1/Add_1_output_0_splitncnn_1 /encoder/encoders/encoders.31/norm1/Add_1_output_0_splitncnn_0 /encoder/encoders/encoders.31/self_attn/linear_out/Add_output_0 0=320 1=4 2=102400 3=320 4=320
BinaryOp                 /encoder/encoders/encoders.31/self_attn/Mul_1 2 1 /encoder/encoders/encoders.31/self_attn/linear_w/Add_output_0 mask_3d_btd_splitncnn_15 /encoder/encoders/encoders.31/self_attn/Mul_1_output_0 0=2
Split                    splitncnn_129            1 2 /encoder/encoders/encoders.31/self_attn/Mul_1_output_0 /encoder/encoders/encoders.31/self_attn/Mul_1_output_0_splitncnn_0 /encoder/encoders/encoders.31/self_attn/Mul_1_output_0_splitncnn_1
Permute                  /encoder/encoders/encoders.31/self_attn/Transpose_4 1 1 /encoder/encoders/encoders.31/self_attn/Mul_1_output_0_splitncnn_1 /encoder/encoders/encoders.31/self_attn/Transpose_4_output_0 0=1
ConvolutionDepthWise1D   /encoder/encoders/encoders.31/self_attn/fsmn_block/Conv 1 1 /encoder/encoders/encoders.31/self_attn/Transpose_4_output_0 /encoder/encoders/encoders.31/self_attn/fsmn_block/Conv_output_0 0=320 1=11 4=5 6=3520 7=320
Permute                  /encoder/encoders/encoders.31/self_attn/Transpose_5 1 1 /encoder/encoders/encoders.31/self_attn/fsmn_block/Conv_output_0 /encoder/encoders/encoders.31/self_attn/Transpose_5_output_0 0=1
BinaryOp                 /encoder/encoders/encoders.31/self_attn/Add 2 1 /encoder/encoders/encoders.31/self_attn/Transpose_5_output_0 /encoder/encoders/encoders.31/self_attn/Mul_1_output_0_splitncnn_0 /encoder/encoders/encoders.31/self_attn/Add_output_0
BinaryOp                 /encoder/encoders/encoders.31/self_attn/Mul_2 2 1 /encoder/encoders/encoders.31/self_attn/Add_output_0 mask_3d_btd_splitncnn_14 /encoder/encoders/encoders.31/self_attn/Mul_2_output_0 0=2
BinaryOp                 /encoder/encoders/encoders.31/self_attn/Add_1 2 1 /encoder/encoders/encoders.31/self_attn/linear_out/Add_output_0 /encoder/encoders/encoders.31/self_attn/Mul_2_output_0 /encoder/encoders/encoders.31/self_attn/Add_1_output_0
BinaryOp                 /encoder/encoders/encoders.31/Add 2 1 /encoder/encoders/encoders.31/self_attn/Add_1_output_0 /encoder/encoders/encoders.30/Add_1_output_0_splitncnn_0 /encoder/encoders/encoders.31/Add_output_0
Split                    splitncnn_130            1 2 /encoder/encoders/encoders.31/Add_output_0 /encoder/encoders/encoders.31/Add_output_0_splitncnn_0 /encoder/encoders/encoders.31/Add_output_0_splitncnn_1
LayerNorm                /encoder/encoders/encoders.31/norm2/Add_1 1 1 /encoder/encoders/encoders.31/Add_output_0_splitncnn_1 /encoder/encoders/encoders.31/norm2/Add_1_output_0 0=320 1=1.000000e-12
InnerProduct             /encoder/encoders/encoders.31/feed_forward/w_1/MatMul 1 1 /encoder/encoders/encoders.31/norm2/Add_1_output_0 /encoder/encoders/encoders.31/feed_forward/activation/Relu_output_0 0=1280 1=1 2=409600 9=1
InnerProduct             /encoder/encoders/encoders.31/feed_forward/w_2/MatMul 1 1 /encoder/encoders/encoders.31/feed_forward/activation/Relu_output_0 /encoder/encoders/encoders.31/feed_forward/w_2/Add_output_0 0=320 1=1 2=409600
BinaryOp                 /encoder/encoders/encoders.31/Add_1 2 1 /encoder/encoders/encoders.31/feed_forward/w_2/Add_output_0 /encoder/encoders/encoders.31/Add_output_0_splitncnn_0 /encoder/encoders/encoders.31/Add_1_output_0
Split                    splitncnn_131            1 2 /encoder/encoders/encoders.31/Add_1_output_0 /encoder/encoders/encoders.31/Add_1_output_0_splitncnn_0 /encoder/encoders/encoders.31/Add_1_output_0_splitncnn_1
LayerNorm                /encoder/encoders/encoders.32/norm1/Add_1 1 1 /encoder/encoders/encoders.31/Add_1_output_0_splitncnn_1 /encoder/encoders/encoders.32/norm1/Add_1_output_0 0=320 1=1.000000e-12
Split                    splitncnn_132            1 4 /encoder/encoders/encoders.32/norm1/Add_1_output_0 /encoder/encoders/encoders.32/norm1/Add_1_output_0_splitncnn_0 /encoder/encoders/encoders.32/norm1/Add_1_output_0_splitncnn_1 /encoder/encoders/encoders.32/norm1/Add_1_output_0_splitncnn_2 /encoder/encoders/encoders.32/norm1/Add_1_output_0_splitncnn_3
InnerProduct             /encoder/encoders/encoders.32/self_attn/linear_w/MatMul 1 1 /encoder/encoders/encoders.32/norm1/Add_1_output_0_splitncnn_3 /encoder/encoders/encoders.32/self_attn/linear_w/Add_output_0 0=320 1=1 2=102400
MultiHeadAttention       /encoder/encoders/encoders.32/self_attn/linear_out/Add 3 1 /encoder/encoders/encoders.32/norm1/Add_1_output_0_splitncnn_2 /encoder/encoders/encoders.32/norm1/Add_1_output_0_splitncnn_1 /encoder/encoders/encoders.32/norm1/Add_1_output_0_splitncnn_0 /encoder/encoders/encoders.32/self_attn/linear_out/Add_output_0 0=320 1=4 2=102400 3=320 4=320
BinaryOp                 /encoder/encoders/encoders.32/self_attn/Mul_1 2 1 /encoder/encoders/encoders.32/self_attn/linear_w/Add_output_0 mask_3d_btd_splitncnn_13 /encoder/encoders/encoders.32/self_attn/Mul_1_output_0 0=2
Split                    splitncnn_133            1 2 /encoder/encoders/encoders.32/self_attn/Mul_1_output_0 /encoder/encoders/encoders.32/self_attn/Mul_1_output_0_splitncnn_0 /encoder/encoders/encoders.32/self_attn/Mul_1_output_0_splitncnn_1
Permute                  /encoder/encoders/encoders.32/self_attn/Transpose_4 1 1 /encoder/encoders/encoders.32/self_attn/Mul_1_output_0_splitncnn_1 /encoder/encoders/encoders.32/self_attn/Transpose_4_output_0 0=1
ConvolutionDepthWise1D   /encoder/encoders/encoders.32/self_attn/fsmn_block/Conv 1 1 /encoder/encoders/encoders.32/self_attn/Transpose_4_output_0 /encoder/encoders/encoders.32/self_attn/fsmn_block/Conv_output_0 0=320 1=11 4=5 6=3520 7=320
Permute                  /encoder/encoders/encoders.32/self_attn/Transpose_5 1 1 /encoder/encoders/encoders.32/self_attn/fsmn_block/Conv_output_0 /encoder/encoders/encoders.32/self_attn/Transpose_5_output_0 0=1
BinaryOp                 /encoder/encoders/encoders.32/self_attn/Add 2 1 /encoder/encoders/encoders.32/self_attn/Transpose_5_output_0 /encoder/encoders/encoders.32/self_attn/Mul_1_output_0_splitncnn_0 /encoder/encoders/encoders.32/self_attn/Add_output_0
BinaryOp                 /encoder/encoders/encoders.32/self_attn/Mul_2 2 1 /encoder/encoders/encoders.32/self_attn/Add_output_0 mask_3d_btd_splitncnn_12 /encoder/encoders/encoders.32/self_attn/Mul_2_output_0 0=2
BinaryOp                 /encoder/encoders/encoders.32/self_attn/Add_1 2 1 /encoder/encoders/encoders.32/self_attn/linear_out/Add_output_0 /encoder/encoders/encoders.32/self_attn/Mul_2_output_0 /encoder/encoders/encoders.32/self_attn/Add_1_output_0
BinaryOp                 /encoder/encoders/encoders.32/Add 2 1 /encoder/encoders/encoders.32/self_attn/Add_1_output_0 /encoder/encoders/encoders.31/Add_1_output_0_splitncnn_0 /encoder/encoders/encoders.32/Add_output_0
Split                    splitncnn_134            1 2 /encoder/encoders/encoders.32/Add_output_0 /encoder/encoders/encoders.32/Add_output_0_splitncnn_0 /encoder/encoders/encoders.32/Add_output_0_splitncnn_1
LayerNorm                /encoder/encoders/encoders.32/norm2/Add_1 1 1 /encoder/encoders/encoders.32/Add_output_0_splitncnn_1 /encoder/encoders/encoders.32/norm2/Add_1_output_0 0=320 1=1.000000e-12
InnerProduct             /encoder/encoders/encoders.32/feed_forward/w_1/MatMul 1 1 /encoder/encoders/encoders.32/norm2/Add_1_output_0 /encoder/encoders/encoders.32/feed_forward/activation/Relu_output_0 0=1280 1=1 2=409600 9=1
InnerProduct             /encoder/encoders/encoders.32/feed_forward/w_2/MatMul 1 1 /encoder/encoders/encoders.32/feed_forward/activation/Relu_output_0 /encoder/encoders/encoders.32/feed_forward/w_2/Add_output_0 0=320 1=1 2=409600
BinaryOp                 /encoder/encoders/encoders.32/Add_1 2 1 /encoder/encoders/encoders.32/feed_forward/w_2/Add_output_0 /encoder/encoders/encoders.32/Add_output_0_splitncnn_0 /encoder/encoders/encoders.32/Add_1_output_0
Split                    splitncnn_135            1 2 /encoder/encoders/encoders.32/Add_1_output_0 /encoder/encoders/encoders.32/Add_1_output_0_splitncnn_0 /encoder/encoders/encoders.32/Add_1_output_0_splitncnn_1
LayerNorm                /encoder/encoders/encoders.33/norm1/Add_1 1 1 /encoder/encoders/encoders.32/Add_1_output_0_splitncnn_1 /encoder/encoders/encoders.33/norm1/Add_1_output_0 0=320 1=1.000000e-12
Split                    splitncnn_136            1 4 /encoder/encoders/encoders.33/norm1/Add_1_output_0 /encoder/encoders/encoders.33/norm1/Add_1_output_0_splitncnn_0 /encoder/encoders/encoders.33/norm1/Add_1_output_0_splitncnn_1 /encoder/encoders/encoders.33/norm1/Add_1_output_0_splitncnn_2 /encoder/encoders/encoders.33/norm1/Add_1_output_0_splitncnn_3
InnerProduct             /encoder/encoders/encoders.33/self_attn/linear_w/MatMul 1 1 /encoder/encoders/encoders.33/norm1/Add_1_output_0_splitncnn_3 /encoder/encoders/encoders.33/self_attn/linear_w/Add_output_0 0=320 1=1 2=102400
MultiHeadAttention       /encoder/encoders/encoders.33/self_attn/linear_out/Add 3 1 /encoder/encoders/encoders.33/norm1/Add_1_output_0_splitncnn_2 /encoder/encoders/encoders.33/norm1/Add_1_output_0_splitncnn_1 /encoder/encoders/encoders.33/norm1/Add_1_output_0_splitncnn_0 /encoder/encoders/encoders.33/self_attn/linear_out/Add_output_0 0=320 1=4 2=102400 3=320 4=320
BinaryOp                 /encoder/encoders/encoders.33/self_attn/Mul_1 2 1 /encoder/encoders/encoders.33/self_attn/linear_w/Add_output_0 mask_3d_btd_splitncnn_11 /encoder/encoders/encoders.33/self_attn/Mul_1_output_0 0=2
Split                    splitncnn_137            1 2 /encoder/encoders/encoders.33/self_attn/Mul_1_output_0 /encoder/encoders/encoders.33/self_attn/Mul_1_output_0_splitncnn_0 /encoder/encoders/encoders.33/self_attn/Mul_1_output_0_splitncnn_1
Permute                  /encoder/encoders/encoders.33/self_attn/Transpose_4 1 1 /encoder/encoders/encoders.33/self_attn/Mul_1_output_0_splitncnn_1 /encoder/encoders/encoders.33/self_attn/Transpose_4_output_0 0=1
ConvolutionDepthWise1D   /encoder/encoders/encoders.33/self_attn/fsmn_block/Conv 1 1 /encoder/encoders/encoders.33/self_attn/Transpose_4_output_0 /encoder/encoders/encoders.33/self_attn/fsmn_block/Conv_output_0 0=320 1=11 4=5 6=3520 7=320
Permute                  /encoder/encoders/encoders.33/self_attn/Transpose_5 1 1 /encoder/encoders/encoders.33/self_attn/fsmn_block/Conv_output_0 /encoder/encoders/encoders.33/self_attn/Transpose_5_output_0 0=1
BinaryOp                 /encoder/encoders/encoders.33/self_attn/Add 2 1 /encoder/encoders/encoders.33/self_attn/Transpose_5_output_0 /encoder/encoders/encoders.33/self_attn/Mul_1_output_0_splitncnn_0 /encoder/encoders/encoders.33/self_attn/Add_output_0
BinaryOp                 /encoder/encoders/encoders.33/self_attn/Mul_2 2 1 /encoder/encoders/encoders.33/self_attn/Add_output_0 mask_3d_btd_splitncnn_10 /encoder/encoders/encoders.33/self_attn/Mul_2_output_0 0=2
BinaryOp                 /encoder/encoders/encoders.33/self_attn/Add_1 2 1 /encoder/encoders/encoders.33/self_attn/linear_out/Add_output_0 /encoder/encoders/encoders.33/self_attn/Mul_2_output_0 /encoder/encoders/encoders.33/self_attn/Add_1_output_0
BinaryOp                 /encoder/encoders/encoders.33/Add 2 1 /encoder/encoders/encoders.33/self_attn/Add_1_output_0 /encoder/encoders/encoders.32/Add_1_output_0_splitncnn_0 /encoder/encoders/encoders.33/Add_output_0
Split                    splitncnn_138            1 2 /encoder/encoders/encoders.33/Add_output_0 /encoder/encoders/encoders.33/Add_output_0_splitncnn_0 /encoder/encoders/encoders.33/Add_output_0_splitncnn_1
LayerNorm                /encoder/encoders/encoders.33/norm2/Add_1 1 1 /encoder/encoders/encoders.33/Add_output_0_splitncnn_1 /encoder/encoders/encoders.33/norm2/Add_1_output_0 0=320 1=1.000000e-12
InnerProduct             /encoder/encoders/encoders.33/feed_forward/w_1/MatMul 1 1 /encoder/encoders/encoders.33/norm2/Add_1_output_0 /encoder/encoders/encoders.33/feed_forward/activation/Relu_output_0 0=1280 1=1 2=409600 9=1
InnerProduct             /encoder/encoders/encoders.33/feed_forward/w_2/MatMul 1 1 /encoder/encoders/encoders.33/feed_forward/activation/Relu_output_0 /encoder/encoders/encoders.33/feed_forward/w_2/Add_output_0 0=320 1=1 2=409600
BinaryOp                 /encoder/encoders/encoders.33/Add_1 2 1 /encoder/encoders/encoders.33/feed_forward/w_2/Add_output_0 /encoder/encoders/encoders.33/Add_output_0_splitncnn_0 /encoder/encoders/encoders.33/Add_1_output_0
Split                    splitncnn_139            1 2 /encoder/encoders/encoders.33/Add_1_output_0 /encoder/encoders/encoders.33/Add_1_output_0_splitncnn_0 /encoder/encoders/encoders.33/Add_1_output_0_splitncnn_1
LayerNorm                /encoder/encoders/encoders.34/norm1/Add_1 1 1 /encoder/encoders/encoders.33/Add_1_output_0_splitncnn_1 /encoder/encoders/encoders.34/norm1/Add_1_output_0 0=320 1=1.000000e-12
Split                    splitncnn_140            1 4 /encoder/encoders/encoders.34/norm1/Add_1_output_0 /encoder/encoders/encoders.34/norm1/Add_1_output_0_splitncnn_0 /encoder/encoders/encoders.34/norm1/Add_1_output_0_splitncnn_1 /encoder/encoders/encoders.34/norm1/Add_1_output_0_splitncnn_2 /encoder/encoders/encoders.34/norm1/Add_1_output_0_splitncnn_3
InnerProduct             /encoder/encoders/encoders.34/self_attn/linear_w/MatMul 1 1 /encoder/encoders/encoders.34/norm1/Add_1_output_0_splitncnn_3 /encoder/encoders/encoders.34/self_attn/linear_w/Add_output_0 0=320 1=1 2=102400
MultiHeadAttention       /encoder/encoders/encoders.34/self_attn/linear_out/Add 3 1 /encoder/encoders/encoders.34/norm1/Add_1_output_0_splitncnn_2 /encoder/encoders/encoders.34/norm1/Add_1_output_0_splitncnn_1 /encoder/encoders/encoders.34/norm1/Add_1_output_0_splitncnn_0 /encoder/encoders/encoders.34/self_attn/linear_out/Add_output_0 0=320 1=4 2=102400 3=320 4=320
BinaryOp                 /encoder/encoders/encoders.34/self_attn/Mul_1 2 1 /encoder/encoders/encoders.34/self_attn/linear_w/Add_output_0 mask_3d_btd_splitncnn_9 /encoder/encoders/encoders.34/self_attn/Mul_1_output_0 0=2
Split                    splitncnn_141            1 2 /encoder/encoders/encoders.34/self_attn/Mul_1_output_0 /encoder/encoders/encoders.34/self_attn/Mul_1_output_0_splitncnn_0 /encoder/encoders/encoders.34/self_attn/Mul_1_output_0_splitncnn_1
Permute                  /encoder/encoders/encoders.34/self_attn/Transpose_4 1 1 /encoder/encoders/encoders.34/self_attn/Mul_1_output_0_splitncnn_1 /encoder/encoders/encoders.34/self_attn/Transpose_4_output_0 0=1
ConvolutionDepthWise1D   /encoder/encoders/encoders.34/self_attn/fsmn_block/Conv 1 1 /encoder/encoders/encoders.34/self_attn/Transpose_4_output_0 /encoder/encoders/encoders.34/self_attn/fsmn_block/Conv_output_0 0=320 1=11 4=5 6=3520 7=320
Permute                  /encoder/encoders/encoders.34/self_attn/Transpose_5 1 1 /encoder/encoders/encoders.34/self_attn/fsmn_block/Conv_output_0 /encoder/encoders/encoders.34/self_attn/Transpose_5_output_0 0=1
BinaryOp                 /encoder/encoders/encoders.34/self_attn/Add 2 1 /encoder/encoders/encoders.34/self_attn/Transpose_5_output_0 /encoder/encoders/encoders.34/self_attn/Mul_1_output_0_splitncnn_0 /encoder/encoders/encoders.34/self_attn/Add_output_0
BinaryOp                 /encoder/encoders/encoders.34/self_attn/Mul_2 2 1 /encoder/encoders/encoders.34/self_attn/Add_output_0 mask_3d_btd_splitncnn_8 /encoder/encoders/encoders.34/self_attn/Mul_2_output_0 0=2
BinaryOp                 /encoder/encoders/encoders.34/self_attn/Add_1 2 1 /encoder/encoders/encoders.34/self_attn/linear_out/Add_output_0 /encoder/encoders/encoders.34/self_attn/Mul_2_output_0 /encoder/encoders/encoders.34/self_attn/Add_1_output_0
BinaryOp                 /encoder/encoders/encoders.34/Add 2 1 /encoder/encoders/encoders.34/self_attn/Add_1_output_0 /encoder/encoders/encoders.33/Add_1_output_0_splitncnn_0 /encoder/encoders/encoders.34/Add_output_0
Split                    splitncnn_142            1 2 /encoder/encoders/encoders.34/Add_output_0 /encoder/encoders/encoders.34/Add_output_0_splitncnn_0 /encoder/encoders/encoders.34/Add_output_0_splitncnn_1
LayerNorm                /encoder/encoders/encoders.34/norm2/Add_1 1 1 /encoder/encoders/encoders.34/Add_output_0_splitncnn_1 /encoder/encoders/encoders.34/norm2/Add_1_output_0 0=320 1=1.000000e-12
InnerProduct             /encoder/encoders/encoders.34/feed_forward/w_1/MatMul 1 1 /encoder/encoders/encoders.34/norm2/Add_1_output_0 /encoder/encoders/encoders.34/feed_forward/activation/Relu_output_0 0=1280 1=1 2=409600 9=1
InnerProduct             /encoder/encoders/encoders.34/feed_forward/w_2/MatMul 1 1 /encoder/encoders/encoders.34/feed_forward/activation/Relu_output_0 /encoder/encoders/encoders.34/feed_forward/w_2/Add_output_0 0=320 1=1 2=409600
BinaryOp                 /encoder/encoders/encoders.34/Add_1 2 1 /encoder/encoders/encoders.34/feed_forward/w_2/Add_output_0 /encoder/encoders/encoders.34/Add_output_0_splitncnn_0 /encoder/encoders/encoders.34/Add_1_output_0
Split                    splitncnn_143            1 2 /encoder/encoders/encoders.34/Add_1_output_0 /encoder/encoders/encoders.34/Add_1_output_0_splitncnn_0 /encoder/encoders/encoders.34/Add_1_output_0_splitncnn_1
LayerNorm                /encoder/encoders/encoders.35/norm1/Add_1 1 1 /encoder/encoders/encoders.34/Add_1_output_0_splitncnn_1 /encoder/encoders/encoders.35/norm1/Add_1_output_0 0=320 1=1.000000e-12
Split                    splitncnn_144            1 4 /encoder/encoders/encoders.35/norm1/Add_1_output_0 /encoder/encoders/encoders.35/norm1/Add_1_output_0_splitncnn_0 /encoder/encoders/encoders.35/norm1/Add_1_output_0_splitncnn_1 /encoder/encoders/encoders.35/norm1/Add_1_output_0_splitncnn_2 /encoder/encoders/encoders.35/norm1/Add_1_output_0_splitncnn_3
InnerProduct             /encoder/encoders/encoders.35/self_attn/linear_w/MatMul 1 1 /encoder/encoders/encoders.35/norm1/Add_1_output_0_splitncnn_3 /encoder/encoders/encoders.35/self_attn/linear_w/Add_output_0 0=320 1=1 2=102400
MultiHeadAttention       /encoder/encoders/encoders.35/self_attn/linear_out/Add 3 1 /encoder/encoders/encoders.35/norm1/Add_1_output_0_splitncnn_2 /encoder/encoders/encoders.35/norm1/Add_1_output_0_splitncnn_1 /encoder/encoders/encoders.35/norm1/Add_1_output_0_splitncnn_0 /encoder/encoders/encoders.35/self_attn/linear_out/Add_output_0 0=320 1=4 2=102400 3=320 4=320
BinaryOp                 /encoder/encoders/encoders.35/self_attn/Mul_1 2 1 /encoder/encoders/encoders.35/self_attn/linear_w/Add_output_0 mask_3d_btd_splitncnn_7 /encoder/encoders/encoders.35/self_attn/Mul_1_output_0 0=2
Split                    splitncnn_145            1 2 /encoder/encoders/encoders.35/self_attn/Mul_1_output_0 /encoder/encoders/encoders.35/self_attn/Mul_1_output_0_splitncnn_0 /encoder/encoders/encoders.35/self_attn/Mul_1_output_0_splitncnn_1
Permute                  /encoder/encoders/encoders.35/self_attn/Transpose_4 1 1 /encoder/encoders/encoders.35/self_attn/Mul_1_output_0_splitncnn_1 /encoder/encoders/encoders.35/self_attn/Transpose_4_output_0 0=1
ConvolutionDepthWise1D   /encoder/encoders/encoders.35/self_attn/fsmn_block/Conv 1 1 /encoder/encoders/encoders.35/self_attn/Transpose_4_output_0 /encoder/encoders/encoders.35/self_attn/fsmn_block/Conv_output_0 0=320 1=11 4=5 6=3520 7=320
Permute                  /encoder/encoders/encoders.35/self_attn/Transpose_5 1 1 /encoder/encoders/encoders.35/self_attn/fsmn_block/Conv_output_0 /encoder/encoders/encoders.35/self_attn/Transpose_5_output_0 0=1
BinaryOp                 /encoder/encoders/encoders.35/self_attn/Add 2 1 /encoder/encoders/encoders.35/self_attn/Transpose_5_output_0 /encoder/encoders/encoders.35/self_attn/Mul_1_output_0_splitncnn_0 /encoder/encoders/encoders.35/self_attn/Add_output_0
BinaryOp                 /encoder/encoders/encoders.35/self_attn/Mul_2 2 1 /encoder/encoders/encoders.35/self_attn/Add_output_0 mask_3d_btd_splitncnn_6 /encoder/encoders/encoders.35/self_attn/Mul_2_output_0 0=2
BinaryOp                 /encoder/encoders/encoders.35/self_attn/Add_1 2 1 /encoder/encoders/encoders.35/self_attn/linear_out/Add_output_0 /encoder/encoders/encoders.35/self_attn/Mul_2_output_0 /encoder/encoders/encoders.35/self_attn/Add_1_output_0
BinaryOp                 /encoder/encoders/encoders.35/Add 2 1 /encoder/encoders/encoders.35/self_attn/Add_1_output_0 /encoder/encoders/encoders.34/Add_1_output_0_splitncnn_0 /encoder/encoders/encoders.35/Add_output_0
Split                    splitncnn_146            1 2 /encoder/encoders/encoders.35/Add_output_0 /encoder/encoders/encoders.35/Add_output_0_splitncnn_0 /encoder/encoders/encoders.35/Add_output_0_splitncnn_1
LayerNorm                /encoder/encoders/encoders.35/norm2/Add_1 1 1 /encoder/encoders/encoders.35/Add_output_0_splitncnn_1 /encoder/encoders/encoders.35/norm2/Add_1_output_0 0=320 1=1.000000e-12
InnerProduct             /encoder/encoders/encoders.35/feed_forward/w_1/MatMul 1 1 /encoder/encoders/encoders.35/norm2/Add_1_output_0 /encoder/encoders/encoders.35/feed_forward/activation/Relu_output_0 0=1280 1=1 2=409600 9=1
InnerProduct             /encoder/encoders/encoders.35/feed_forward/w_2/MatMul 1 1 /encoder/encoders/encoders.35/feed_forward/activation/Relu_output_0 /encoder/encoders/encoders.35/feed_forward/w_2/Add_output_0 0=320 1=1 2=409600
BinaryOp                 /encoder/encoders/encoders.35/Add_1 2 1 /encoder/encoders/encoders.35/feed_forward/w_2/Add_output_0 /encoder/encoders/encoders.35/Add_output_0_splitncnn_0 /encoder/encoders/encoders.35/Add_1_output_0
Split                    splitncnn_147            1 2 /encoder/encoders/encoders.35/Add_1_output_0 /encoder/encoders/encoders.35/Add_1_output_0_splitncnn_0 /encoder/encoders/encoders.35/Add_1_output_0_splitncnn_1
LayerNorm                /encoder/encoders/encoders.36/norm1/Add_1 1 1 /encoder/encoders/encoders.35/Add_1_output_0_splitncnn_1 /encoder/encoders/encoders.36/norm1/Add_1_output_0 0=320 1=1.000000e-12
Split                    splitncnn_148            1 4 /encoder/encoders/encoders.36/norm1/Add_1_output_0 /encoder/encoders/encoders.36/norm1/Add_1_output_0_splitncnn_0 /encoder/encoders/encoders.36/norm1/Add_1_output_0_splitncnn_1 /encoder/encoders/encoders.36/norm1/Add_1_output_0_splitncnn_2 /encoder/encoders/encoders.36/norm1/Add_1_output_0_splitncnn_3
InnerProduct             /encoder/encoders/encoders.36/self_attn/linear_w/MatMul 1 1 /encoder/encoders/encoders.36/norm1/Add_1_output_0_splitncnn_3 /encoder/encoders/encoders.36/self_attn/linear_w/Add_output_0 0=320 1=1 2=102400
MultiHeadAttention       /encoder/encoders/encoders.36/self_attn/linear_out/Add 3 1 /encoder/encoders/encoders.36/norm1/Add_1_output_0_splitncnn_2 /encoder/encoders/encoders.36/norm1/Add_1_output_0_splitncnn_1 /encoder/encoders/encoders.36/norm1/Add_1_output_0_splitncnn_0 /encoder/encoders/encoders.36/self_attn/linear_out/Add_output_0 0=320 1=4 2=102400 3=320 4=320
BinaryOp                 /encoder/encoders/encoders.36/self_attn/Mul_1 2 1 /encoder/encoders/encoders.36/self_attn/linear_w/Add_output_0 mask_3d_btd_splitncnn_5 /encoder/encoders/encoders.36/self_attn/Mul_1_output_0 0=2
Split                    splitncnn_149            1 2 /encoder/encoders/encoders.36/self_attn/Mul_1_output_0 /encoder/encoders/encoders.36/self_attn/Mul_1_output_0_splitncnn_0 /encoder/encoders/encoders.36/self_attn/Mul_1_output_0_splitncnn_1
Permute                  /encoder/encoders/encoders.36/self_attn/Transpose_4 1 1 /encoder/encoders/encoders.36/self_attn/Mul_1_output_0_splitncnn_1 /encoder/encoders/encoders.36/self_attn/Transpose_4_output_0 0=1
ConvolutionDepthWise1D   /encoder/encoders/encoders.36/self_attn/fsmn_block/Conv 1 1 /encoder/encoders/encoders.36/self_attn/Transpose_4_output_0 /encoder/encoders/encoders.36/self_attn/fsmn_block/Conv_output_0 0=320 1=11 4=5 6=3520 7=320
Permute                  /encoder/encoders/encoders.36/self_attn/Transpose_5 1 1 /encoder/encoders/encoders.36/self_attn/fsmn_block/Conv_output_0 /encoder/encoders/encoders.36/self_attn/Transpose_5_output_0 0=1
BinaryOp                 /encoder/encoders/encoders.36/self_attn/Add 2 1 /encoder/encoders/encoders.36/self_attn/Transpose_5_output_0 /encoder/encoders/encoders.36/self_attn/Mul_1_output_0_splitncnn_0 /encoder/encoders/encoders.36/self_attn/Add_output_0
BinaryOp                 /encoder/encoders/encoders.36/self_attn/Mul_2 2 1 /encoder/encoders/encoders.36/self_attn/Add_output_0 mask_3d_btd_splitncnn_4 /encoder/encoders/encoders.36/self_attn/Mul_2_output_0 0=2
BinaryOp                 /encoder/encoders/encoders.36/self_attn/Add_1 2 1 /encoder/encoders/encoders.36/self_attn/linear_out/Add_output_0 /encoder/encoders/encoders.36/self_attn/Mul_2_output_0 /encoder/encoders/encoders.36/self_attn/Add_1_output_0
BinaryOp                 /encoder/encoders/encoders.36/Add 2 1 /encoder/encoders/encoders.36/self_attn/Add_1_output_0 /encoder/encoders/encoders.35/Add_1_output_0_splitncnn_0 /encoder/encoders/encoders.36/Add_output_0
Split                    splitncnn_150            1 2 /encoder/encoders/encoders.36/Add_output_0 /encoder/encoders/encoders.36/Add_output_0_splitncnn_0 /encoder/encoders/encoders.36/Add_output_0_splitncnn_1
LayerNorm                /encoder/encoders/encoders.36/norm2/Add_1 1 1 /encoder/encoders/encoders.36/Add_output_0_splitncnn_1 /encoder/encoders/encoders.36/norm2/Add_1_output_0 0=320 1=1.000000e-12
InnerProduct             /encoder/encoders/encoders.36/feed_forward/w_1/MatMul 1 1 /encoder/encoders/encoders.36/norm2/Add_1_output_0 /encoder/encoders/encoders.36/feed_forward/activation/Relu_output_0 0=1280 1=1 2=409600 9=1
InnerProduct             /encoder/encoders/encoders.36/feed_forward/w_2/MatMul 1 1 /encoder/encoders/encoders.36/feed_forward/activation/Relu_output_0 /encoder/encoders/encoders.36/feed_forward/w_2/Add_output_0 0=320 1=1 2=409600
BinaryOp                 /encoder/encoders/encoders.36/Add_1 2 1 /encoder/encoders/encoders.36/feed_forward/w_2/Add_output_0 /encoder/encoders/encoders.36/Add_output_0_splitncnn_0 /encoder/encoders/encoders.36/Add_1_output_0
Split                    splitncnn_151            1 2 /encoder/encoders/encoders.36/Add_1_output_0 /encoder/encoders/encoders.36/Add_1_output_0_splitncnn_0 /encoder/encoders/encoders.36/Add_1_output_0_splitncnn_1
LayerNorm                /encoder/encoders/encoders.37/norm1/Add_1 1 1 /encoder/encoders/encoders.36/Add_1_output_0_splitncnn_1 /encoder/encoders/encoders.37/norm1/Add_1_output_0 0=320 1=1.000000e-12
Split                    splitncnn_152            1 4 /encoder/encoders/encoders.37/norm1/Add_1_output_0 /encoder/encoders/encoders.37/norm1/Add_1_output_0_splitncnn_0 /encoder/encoders/encoders.37/norm1/Add_1_output_0_splitncnn_1 /encoder/encoders/encoders.37/norm1/Add_1_output_0_splitncnn_2 /encoder/encoders/encoders.37/norm1/Add_1_output_0_splitncnn_3
InnerProduct             /encoder/encoders/encoders.37/self_attn/linear_w/MatMul 1 1 /encoder/encoders/encoders.37/norm1/Add_1_output_0_splitncnn_3 /encoder/encoders/encoders.37/self_attn/linear_w/Add_output_0 0=320 1=1 2=102400
MultiHeadAttention       /encoder/encoders/encoders.37/self_attn/linear_out/Add 3 1 /encoder/encoders/encoders.37/norm1/Add_1_output_0_splitncnn_2 /encoder/encoders/encoders.37/norm1/Add_1_output_0_splitncnn_1 /encoder/encoders/encoders.37/norm1/Add_1_output_0_splitncnn_0 /encoder/encoders/encoders.37/self_attn/linear_out/Add_output_0 0=320 1=4 2=102400 3=320 4=320
BinaryOp                 /encoder/encoders/encoders.37/self_attn/Mul_1 2 1 /encoder/encoders/encoders.37/self_attn/linear_w/Add_output_0 mask_3d_btd_splitncnn_3 /encoder/encoders/encoders.37/self_attn/Mul_1_output_0 0=2
Split                    splitncnn_153            1 2 /encoder/encoders/encoders.37/self_attn/Mul_1_output_0 /encoder/encoders/encoders.37/self_attn/Mul_1_output_0_splitncnn_0 /encoder/encoders/encoders.37/self_attn/Mul_1_output_0_splitncnn_1
Permute                  /encoder/encoders/encoders.37/self_attn/Transpose_4 1 1 /encoder/encoders/encoders.37/self_attn/Mul_1_output_0_splitncnn_1 /encoder/encoders/encoders.37/self_attn/Transpose_4_output_0 0=1
ConvolutionDepthWise1D   /encoder/encoders/encoders.37/self_attn/fsmn_block/Conv 1 1 /encoder/encoders/encoders.37/self_attn/Transpose_4_output_0 /encoder/encoders/encoders.37/self_attn/fsmn_block/Conv_output_0 0=320 1=11 4=5 6=3520 7=320
Permute                  /encoder/encoders/encoders.37/self_attn/Transpose_5 1 1 /encoder/encoders/encoders.37/self_attn/fsmn_block/Conv_output_0 /encoder/encoders/encoders.37/self_attn/Transpose_5_output_0 0=1
BinaryOp                 /encoder/encoders/encoders.37/self_attn/Add 2 1 /encoder/encoders/encoders.37/self_attn/Transpose_5_output_0 /encoder/encoders/encoders.37/self_attn/Mul_1_output_0_splitncnn_0 /encoder/encoders/encoders.37/self_attn/Add_output_0
BinaryOp                 /encoder/encoders/encoders.37/self_attn/Mul_2 2 1 /encoder/encoders/encoders.37/self_attn/Add_output_0 mask_3d_btd_splitncnn_2 /encoder/encoders/encoders.37/self_attn/Mul_2_output_0 0=2
BinaryOp                 /encoder/encoders/encoders.37/self_attn/Add_1 2 1 /encoder/encoders/encoders.37/self_attn/linear_out/Add_output_0 /encoder/encoders/encoders.37/self_attn/Mul_2_output_0 /encoder/encoders/encoders.37/self_attn/Add_1_output_0
BinaryOp                 /encoder/encoders/encoders.37/Add 2 1 /encoder/encoders/encoders.37/self_attn/Add_1_output_0 /encoder/encoders/encoders.36/Add_1_output_0_splitncnn_0 /encoder/encoders/encoders.37/Add_output_0
Split                    splitncnn_154            1 2 /encoder/encoders/encoders.37/Add_output_0 /encoder/encoders/encoders.37/Add_output_0_splitncnn_0 /encoder/encoders/encoders.37/Add_output_0_splitncnn_1
LayerNorm                /encoder/encoders/encoders.37/norm2/Add_1 1 1 /encoder/encoders/encoders.37/Add_output_0_splitncnn_1 /encoder/encoders/encoders.37/norm2/Add_1_output_0 0=320 1=1.000000e-12
InnerProduct             /encoder/encoders/encoders.37/feed_forward/w_1/MatMul 1 1 /encoder/encoders/encoders.37/norm2/Add_1_output_0 /encoder/encoders/encoders.37/feed_forward/activation/Relu_output_0 0=1280 1=1 2=409600 9=1
InnerProduct             /encoder/encoders/encoders.37/feed_forward/w_2/MatMul 1 1 /encoder/encoders/encoders.37/feed_forward/activation/Relu_output_0 /encoder/encoders/encoders.37/feed_forward/w_2/Add_output_0 0=320 1=1 2=409600
BinaryOp                 /encoder/encoders/encoders.37/Add_1 2 1 /encoder/encoders/encoders.37/feed_forward/w_2/Add_output_0 /encoder/encoders/encoders.37/Add_output_0_splitncnn_0 /encoder/encoders/encoders.37/Add_1_output_0
Split                    splitncnn_155            1 2 /encoder/encoders/encoders.37/Add_1_output_0 /encoder/encoders/encoders.37/Add_1_output_0_splitncnn_0 /encoder/encoders/encoders.37/Add_1_output_0_splitncnn_1
LayerNorm                /encoder/encoders/encoders.38/norm1/Add_1 1 1 /encoder/encoders/encoders.37/Add_1_output_0_splitncnn_1 /encoder/encoders/encoders.38/norm1/Add_1_output_0 0=320 1=1.000000e-12
Split                    splitncnn_156            1 4 /encoder/encoders/encoders.38/norm1/Add_1_output_0 /encoder/encoders/encoders.38/norm1/Add_1_output_0_splitncnn_0 /encoder/encoders/encoders.38/norm1/Add_1_output_0_splitncnn_1 /encoder/encoders/encoders.38/norm1/Add_1_output_0_splitncnn_2 /encoder/encoders/encoders.38/norm1/Add_1_output_0_splitncnn_3
InnerProduct             /encoder/encoders/encoders.38/self_attn/linear_w/MatMul 1 1 /encoder/encoders/encoders.38/norm1/Add_1_output_0_splitncnn_3 /encoder/encoders/encoders.38/self_attn/linear_w/Add_output_0 0=320 1=1 2=102400
MultiHeadAttention       /encoder/encoders/encoders.38/self_attn/linear_out/Add 3 1 /encoder/encoders/encoders.38/norm1/Add_1_output_0_splitncnn_2 /encoder/encoders/encoders.38/norm1/Add_1_output_0_splitncnn_1 /encoder/encoders/encoders.38/norm1/Add_1_output_0_splitncnn_0 /encoder/encoders/encoders.38/self_attn/linear_out/Add_output_0 0=320 1=4 2=102400 3=320 4=320
BinaryOp                 /encoder/encoders/encoders.38/self_attn/Mul_1 2 1 /encoder/encoders/encoders.38/self_attn/linear_w/Add_output_0 mask_3d_btd_splitncnn_1 /encoder/encoders/encoders.38/self_attn/Mul_1_output_0 0=2
Split                    splitncnn_157            1 2 /encoder/encoders/encoders.38/self_attn/Mul_1_output_0 /encoder/encoders/encoders.38/self_attn/Mul_1_output_0_splitncnn_0 /encoder/encoders/encoders.38/self_attn/Mul_1_output_0_splitncnn_1
Permute                  /encoder/encoders/encoders.38/self_attn/Transpose_4 1 1 /encoder/encoders/encoders.38/self_attn/Mul_1_output_0_splitncnn_1 /encoder/encoders/encoders.38/self_attn/Transpose_4_output_0 0=1
ConvolutionDepthWise1D   /encoder/encoders/encoders.38/self_attn/fsmn_block/Conv 1 1 /encoder/encoders/encoders.38/self_attn/Transpose_4_output_0 /encoder/encoders/encoders.38/self_attn/fsmn_block/Conv_output_0 0=320 1=11 4=5 6=3520 7=320
Permute                  /encoder/encoders/encoders.38/self_attn/Transpose_5 1 1 /encoder/encoders/encoders.38/self_attn/fsmn_block/Conv_output_0 /encoder/encoders/encoders.38/self_attn/Transpose_5_output_0 0=1
BinaryOp                 /encoder/encoders/encoders.38/self_attn/Add 2 1 /encoder/encoders/encoders.38/self_attn/Transpose_5_output_0 /encoder/encoders/encoders.38/self_attn/Mul_1_output_0_splitncnn_0 /encoder/encoders/encoders.38/self_attn/Add_output_0
BinaryOp                 /encoder/encoders/encoders.38/self_attn/Mul_2 2 1 /encoder/encoders/encoders.38/self_attn/Add_output_0 mask_3d_btd_splitncnn_0 /encoder/encoders/encoders.38/self_attn/Mul_2_output_0 0=2
BinaryOp                 /encoder/encoders/encoders.38/self_attn/Add_1 2 1 /encoder/encoders/encoders.38/self_attn/linear_out/Add_output_0 /encoder/encoders/encoders.38/self_attn/Mul_2_output_0 /encoder/encoders/encoders.38/self_attn/Add_1_output_0
BinaryOp                 /encoder/encoders/encoders.38/Add 2 1 /encoder/encoders/encoders.38/self_attn/Add_1_output_0 /encoder/encoders/encoders.37/Add_1_output_0_splitncnn_0 /encoder/encoders/encoders.38/Add_output_0
Split                    splitncnn_158            1 2 /encoder/encoders/encoders.38/Add_output_0 /encoder/encoders/encoders.38/Add_output_0_splitncnn_0 /encoder/encoders/encoders.38/Add_output_0_splitncnn_1
LayerNorm                /encoder/encoders/encoders.38/norm2/Add_1 1 1 /encoder/encoders/encoders.38/Add_output_0_splitncnn_1 /encoder/encoders/encoders.38/norm2/Add_1_output_0 0=320 1=1.000000e-12
InnerProduct             /encoder/encoders/encoders.38/feed_forward/w_1/MatMul 1 1 /encoder/encoders/encoders.38/norm2/Add_1_output_0 /encoder/encoders/encoders.38/feed_forward/activation/Relu_output_0 0=1280 1=1 2=409600 9=1
InnerProduct             /encoder/encoders/encoders.38/feed_forward/w_2/MatMul 1 1 /encoder/encoders/encoders.38/feed_forward/activation/Relu_output_0 /encoder/encoders/encoders.38/feed_forward/w_2/Add_output_0 0=320 1=1 2=409600
BinaryOp                 /encoder/encoders/encoders.38/Add_1 2 1 /encoder/encoders/encoders.38/feed_forward/w_2/Add_output_0 /encoder/encoders/encoders.38/Add_output_0_splitncnn_0 /encoder/encoders/encoders.38/Add_1_output_0
LayerNorm                /encoder/after_norm/Add_1 1 1 /encoder/encoders/encoders.38/Add_1_output_0 out0 0=320 1=1.000000e-12
Permute                  /predictor/Transpose     1 1 out0 /predictor/Transpose_output_0 0=1
Convolution1D            /predictor/cif_conv1d/Conv 1 1 /predictor/Transpose_output_0 /predictor/Relu_output_0 0=320 1=3 4=1 5=1 6=307200 9=1
Permute                  /predictor/Transpose_1   1 1 /predictor/Relu_output_0 /predictor/Transpose_1_output_0 0=1
InnerProduct             /predictor/cif_output/MatMul 1 1 /predictor/Transpose_1_output_0 /predictor/cif_output/MatMul_output_0 0=1 2=320
BinaryOp                 /predictor/cif_output/Add 1 1 /predictor/cif_output/MatMul_output_0 /predictor/cif_output/Add_output_0 1=1 2=-3.130336e-01
Sigmoid                  /predictor/Sigmoid       1 1 /predictor/cif_output/Add_output_0 /predictor/Sigmoid_output_0
ReLU                     /predictor/Relu_1        1 1 /predictor/Sigmoid_output_0 /predictor/Relu_1_output_0
BinaryOp                 /predictor/Mul_1         2 1 /predictor/Relu_1_output_0 mask_3d_btd_splitncnn_80 out1 0=2
